connect4_checkpoint_v1.pth (torch, 42057 bytes, 6 tensors)

layers.0.weight f4 [100, 42]
0	0x3e6177dc	0.22018379
1	0xbaeaeeaf	-0.0017923916
2	0x3e08914c	0.13336676
3	0x3e5eff6c	0.21777123
4	0xbe926f63	-0.28600606
5	0x3d1c574e	0.038169198
6	0x3dc7b1b3	0.0975069
7	0xbe4363e9	-0.19081081
8	0xbc322a83	-0.010874393
9	0x3e4e902a	0.20172182
10	0x3e3a411b	0.18188898
11	0x3ccea25b	0.025223901
12	0xbe15bfeb	-0.14623992
13	0xbedd9299	-0.43275908
14	0xbd0965e0	-0.03354442
15	0xbf0c8444	-0.5488932
16	0x3e858b5c	0.26082885
17	0x3eb27bb5	0.34860006
18	0x3df2b45f	0.11850809
19	0xbe5eb630	-0.21749187
20	0x3c9fb464	0.019495197
21	0xbb6ad547	-0.003583269
22	0xbe8889c6	-0.26667613
23	0xbeeea6d8	-0.46611667
24	0x3f18fd5b	0.5976159
25	0xbe8a68d9	-0.27033117
26	0xbe64a3a3	-0.22328047
27	0xbf225cd0	-0.6342287
28	0xbde8bd92	-0.11364283
29	0xbef7eae1	-0.48421386
30	0x3e78db73	0.24302463
31	0x3c093925	0.008375441
32	0xbe36af65	-0.17840345
33	0xbe8517b7	-0.25994655
34	0xbe2a3edc	-0.16625541
35	0xbe694a46	-0.2278224
36	0xbeb9c5b2	-0.36283642
37	0x3cb1164d	0.02161708
38	0x3f18b585	0.59651977
39	0x3d91c79e	0.07118152
40	0xbd98f5aa	-0.07468732
41	0xbe1025ed	-0.14076968
42	0xbd47b0b2	-0.048752494
43	0x3db28fca	0.08718832
44	0x3ea77576	0.32706803
45	0x3db39889	0.08769328
46	0xbdb7f1c3	-0.08981659
47	0x3dceba2f	0.100941055
48	0x3c89aa6e	0.0168049
49	0x3d1e959d	0.0387169
50	0x3eda4529	0.4263089
51	0x3e0c4dcf	0.13701557
52	0x3eb9111a	0.3614586
53	0xbdcf1369	-0.10111124
54	0x3f0cf34b	0.55058736
55	0xbe6a55e9	-0.22884335
56	0xbe5ff134	-0.21869355
57	0xbdf82152	-0.1211573
58	0x3e1c1b2b	0.15244739
59	0x3eabfb11	0.33589986
60	0x3f0ec47d	0.5576857
61	0xbe629974	-0.2212885
62	0xbd776219	-0.060396288
63	0xbf198bfa	-0.5997921
64	0x3de27962	0.11058308
65	0xbec1549b	-0.3775986
66	0xbc9a6a27	-0.018849446
67	0xbe89c19b	-0.26905522
68	0xbe8ffcc8	-0.28122544
69	0xbe0c364b	-0.13692586
70	0xbe568bca	-0.20951763
71	0xbec94f2c	-0.39318216
72	0x3f0c975d	0.5491846
73	0x3d888196	0.066653416
74	0xbe858674	-0.26079142
75	0x3d91f1ae	0.07126175
76	0xbeb26e7e	-0.34849924
77	0xbe473958	-0.19455469
78	0x3d86cfb1	0.06582583
79	0xbb8101b4	-0.0039369706
80	0x3ea5d6ad	0.32390347
81	0x3dc465a6	0.095897004
82	0xbd66b4f6	-0.05632492
83	0xbebe313c	-0.37146938
84	0xbd43426f	-0.047670778
85	0x3e2df41c	0.16987652
86	0xbd451e02	-0.04812432
87	0x3e0d88a6	0.13821658
88	0xbeb366fb	-0.35039505
89	0x3cac54fa	0.021036614
90	0xbe2c5afa	-0.1683158
91	0x3e2a67fd	0.16641231
92	0x3ed579bc	0.41694438
93	0x3f180a07	0.593903
94	0x3eae67d0	0.34063578
95	0xb8f37f20	-0.00011610822
96	0xbdfbeef9	-0.1230144
97	0x3d173034	0.036911204
98	0x3e32db42	0.17466453
99	0xbf646006	-0.8920902
100	0xbe393081	-0.18084909
101	0x3ecba95b	0.39777645
102	0x3e3a7cff	0.18211745
103	0xbd59e017	-0.053192224
104	0xbe1fed5c	-0.15617889
105	0x3e39d665	0.18148191
106	0xbe20ff2e	-0.15722343
107	0xbee32cec	-0.4437021
108	0x3df7d242	0.1210065
109	0xbf5da2d3	-0.86576575
110	0x3e83074b	0.25591502
111	0xbe947844	-0.28998005
112	0xbd1a93d6	-0.037738644
113	0x3e0eb581	0.13936426
114	0x3f047bad	0.51751214
115	0x3b99272f	0.0046738605
116	0xbf180095	-0.5937589
117	0xbe92b124	-0.28650773
118	0xbeb8c163	-0.36085042
119	0xbce2ab1f	-0.027669488
120	0xbec2a4e8	-0.38016438
121	0x3e56b2cd	0.20966645
122	0x3e9e0886	0.30865878
123	0xbec987b8	-0.39361358
124	0x3d542885	0.051796455
125	0xbdd45f42	-0.103697315
126	0xbe15789a	-0.14596787
127	0x3ecc0be9	0.39852837
128	0x3e8531d0	0.26014566
129	0x3e63064e	0.22170374
130	0xbeafab6b	-0.3431047
131	0xbc2c039c	-0.010498907
132	0x3c9b36a1	0.018946948
133	0x3e1556f4	0.14583951
134	0x3eb12c02	0.34603888
135	0x3f15ff1a	0.5859238
136	0x3e805ba6	0.25069922
137	0x3cb5f6f8	0.02221249
138	0xbe178a6b	-0.14798896
139	0xbe8c181c	-0.27362144
140	0x3e0ad105	0.13556297
141	0xbf5f09cb	-0.8712432
142	0x3eb4da30	0.35322714
143	0x3ee92d9f	0.4554262
144	0xbc97af36	-0.018516164
145	0xbdb18c80	-0.086693764
146	0xbdeae434	-0.114693075
147	0xbee46e26	-0.44615287
148	0xbe5e705c	-0.21722549
149	0x3dce046d	0.10059438
150	0x3e0bbf01	0.13647081
151	0xbec7562d	-0.38932934
152	0xbe9dacf5	-0.30796018
153	0xbd3d1635	-0.046163756
154	0x3d44fd04	0.048092857
155	0xbdce600d	-0.10076914
156	0x3e378cf8	0.17924869
157	0x3d86d751	0.06584037
158	0x3dbec3d5	0.09314696
159	0xbe5e21c5	-0.2169257
160	0xbd7535b2	-0.05986566
161	0xbd0cbf51	-0.03436214
162	0xbe8d2ef0	-0.27574873
163	0x3db6b6bc	0.089215726
164	0x3efe7232	0.496965
165	0xbe18875d	-0.14895387
166	0xbc07ba36	-0.008284142
167	0x3d7b7c03	0.061397564
168	0x3e68bafd	0.2272758
169	0x3e2a6a1e	0.16642043
170	0x3ee19bc0	0.4406414
171	0x3f213e4f	0.629857
172	0x3dd9e22c	0.10638842
173	0x3b091f68	0.002092326
174	0x3cd6a8a0	0.026203454
175	0x3e18d63a	0.14925471
176	0xbe9e6194	-0.3093382
177	0x3f434f9e	0.7629336
178	0x3e6dd4fc	0.23225778
179	0xbd570c59	-0.05250201
180	0x3ee9abc3	0.45638856
181	0x3de429d3	0.1114079
182	0x3e467931	0.19382168
183	0xbef35ede	-0.47533315
184	0xbd9a20e9	-0.07525808
185	0x3d92ab27	0.07161551
186	0xbee509af	-0.4473395
187	0x3dcfabfb	0.101402245
188	0x3d80ee24	0.06295422
189	0xbddc32f7	-0.10751908
190	0xbd58dc30	-0.052944362
191	0xbf502722	-0.8130971
192	0x3e3fabd4	0.18717891
193	0xbe0ba726	-0.13637981
194	0xbe8cacbf	-0.27475545
195	0xbea2facb	-0.31831965
196	0xbd2c06a1	-0.04199851
197	0x3dd91aa0	0.106007814
198	0x3e106ea0	0.141047
199	0x3e00eb0d	0.12589665
200	0xbe2631a2	-0.16229871
201	0x3c59e56c	0.013299327
202	0xbbdea89f	-0.0067950035
203	0xbe73e75e	-0.23818728
204	0x3c75a432	0.0149927605
205	0xbe21bc93	-0.15794592
206	0x3de038f2	0.109483615
207	0x3d0ddb4c	0.034632966
208	0x3cb83b83	0.022489315
209	0xbf0993a0	-0.5374088
210	0xbe0d38a7	-0.13791142
211	0x3eec9162	0.46204668
212	0x3e0b1d7b	0.13585465
213	0x3e993872	0.29925877
214	0xbe12c6dc	-0.14333671
215	0xbe2f0fd2	-0.17095879
216	0xbe14be68	-0.14525759
217	0x3ee64890	0.44977236
218	0xbed83c32	-0.42233425
219	0x3cec61a4	0.028855152
220	0x3e5cd4c6	0.21565542
221	0xbe30862c	-0.17238683
222	0x3e2a8def	0.16655706
223	0x3dc5226e	0.096257076
224	0xbcb0a981	-0.0215652
225	0x3ec2c6d6	0.38042325
226	0x3e2c112b	0.16803424
227	0x3d5aac64	0.05338706
228	0xbeb58e61	-0.3546019
229	0x3d09fd23	0.033688676
230	0x3e37014b	0.17871587
231	0x3ec5531a	0.38539964
232	0xbee4dd16	-0.44699925
233	0xbf05a34a	-0.52202284
234	0xbd82e0d6	-0.0639054
235	0xbeaf4908	-0.34235406
236	0x3d416311	0.047213618
237	0xbd5ae099	-0.05343685
238	0xbda2c04f	-0.07946836
239	0x3ec703fa	0.3887022
240	0xbebf6369	-0.3738053
241	0xbe98dbba	-0.29855138
242	0xbdf98985	-0.12184433
243	0x3da306b3	0.07960262
244	0xbe802dfd	-0.25035086
245	0xbe5de8a9	-0.21670784
246	0xbeefd691	-0.4684339
247	0x3daa2105	0.08307079
248	0x3ea785de	0.3271932
249	0x3c4c4456	0.012467464
250	0x3e03c7fb	0.12869255
251	0xbf4f4858	-0.8096976
252	0x3e246508	0.16054165
253	0x3e98f2c0	0.29872704
254	0x3f144993	0.57924765
255	0x3f775a2d	0.9662197

layers.0.bias f4 [100]
0	0xbd3cfdf9	-0.046140645
1	0x3e537038	0.20648277
2	0x3db237a5	0.087020196
3	0x3d58d956	0.052941643
4	0xbdef2805	-0.11677555
5	0xbe3f00ac	-0.186526
6	0x3e9005d6	0.28129452
7	0xbf292bb4	-0.6608231
8	0xbefc2bc4	-0.4925214
9	0xbe1c3266	-0.152536
10	0x3e61bdd5	0.22045071
11	0xbe9de236	-0.30836648
12	0xbe806d58	-0.25083423
13	0x3ea19ada	0.31563455
14	0x3ddec88b	0.10878094
15	0x3deea98e	0.11653434
16	0x3f0100fe	0.5039214
17	0x3efdf2b6	0.49599236
18	0xbd448631	-0.047979537
19	0xbe7f5061	-0.24933006
20	0x3e975325	0.29555622
21	0xbd678cf7	-0.05653092
22	0x3e9c0582	0.30472952
23	0x3ea7cd8b	0.32774004
24	0x3ed5c67e	0.41753
25	0xba5e420f	-0.00084784714
26	0x3db5c725	0.088758744
27	0x3ec4daed	0.38448277
28	0xbda7255e	-0.08161424
29	0x3ccdabe4	0.025106378
30	0x3ed58181	0.41700366
31	0x3e81ed99	0.25376585
32	0x3e5c82ff	0.21534346
33	0x3e8058e0	0.25067806
34	0x3eab3182	0.3343621
35	0xbcff3ba9	-0.031156378
36	0xbb87fe05	-0.0041501545
37	0x3e910e48	0.28331208
38	0x3e840cbc	0.25790966
39	0xbec2db6c	-0.3805803
40	0x3da2c6e4	0.079480916
41	0x3e328996	0.17435297
42	0x3f115791	0.5677424
43	0xbe668036	-0.22509846
44	0x3c9070a9	0.017631846
45	0x3eb13e5a	0.34617883
46	0xbebda7e3	-0.3704215
47	0x3e7b32b8	0.24531066
48	0xbc2c103f	-0.01050192
49	0x3dd86156	0.1056544
50	0x3eb2c2c7	0.34914228
51	0xbc7af9a6	-0.01531831
52	0xbec9b28c	-0.39394033
53	0xbebfc89b	-0.37457737
54	0xbeb1262b	-0.34599432
55	0x3cd44cee	0.02591559
56	0x3e01add2	0.12663963
57	0x3d1c36ff	0.038138386
58	0xbef41dfb	-0.47679123
59	0x3e6f218c	0.23352641
60	0x3efe6363	0.496852
61	0x3cbb80fd	0.022888655
62	0x3e982bbd	0.2972087
63	0xbdca4d2c	-0.098780006
64	0xbe861bb1	-0.26193002
65	0xbe30e1d6	-0.1727365
66	0xbdfb0424	-0.12256649
67	0x3de94f66	0.11392097
68	0x3e4d93c8	0.20075905
69	0x3d92d5d1	0.071696885
70	0xbcf29491	-0.029611858
71	0xbe7a4d3d	-0.24443527
72	0x3eb18013	0.34668025
73	0x3dfca8d4	0.12336889
74	0x3d799c28	0.060939938
75	0xbed4087b	-0.4141272
76	0x3d1874f3	0.037220906
77	0x3de876d9	0.113507934
78	0x3eb24615	0.34819093
79	0x3e16d674	0.14730245
80	0x3ca2dfe6	0.019882154
81	0x3d680f7b	0.05665539
82	0x3dcb7989	0.0993529
83	0xbdbd1d8b	-0.092341505
84	0x3db99058	0.090607345
85	0x3d726bcd	0.059184838
86	0x3eaa2403	0.332306
87	0xbe295a24	-0.16538292
88	0xbe31979c	-0.1734299
89	0x3d14d527	0.03633609
90	0x3ef07aaf	0.469686
91	0x3df3d1f4	0.1190528
92	0x3d680a10	0.05665022
93	0xbcda44df	-0.026644168
94	0x3e8ff727	0.2811825
95	0xbc861b30	-0.016370386
96	0x3e58806b	0.21142738
97	0x3d5367fb	0.051612835
98	0xbe2eb93f	-0.17062853
99	0x3e4c3f9e	0.19946143

layers.2.weight f4 [50, 100]
0	0xbe3c947a	-0.18416014
1	0xbe15b60f	-0.14620231
2	0xbdb941cd	-0.09045754
3	0xbda06367	-0.078314595
4	0x3dbb0bf6	0.09133141
5	0x3d1961d4	0.03744681
6	0xbe1df322	-0.15424779
7	0xbdd9a08a	-0.106263235
8	0x3d28f91e	0.0412532
9	0xbc55793d	-0.013029394
10	0x3c32b4bf	0.010907351
11	0x3dc7675c	0.09736511
12	0xbd47c3ae	-0.0487706
13	0x3d03ffb9	0.032226298
14	0x3c0f32aa	0.008740107
15	0xbe12ec9f	-0.14348076
16	0x3c656f39	0.014003568
17	0xbcab889c	-0.020939164
18	0xbe575987	-0.21030246
19	0xbdf0ac09	-0.11751563
20	0xbdf749ea	-0.12074645
21	0xbbd5f12d	-0.0065289945
22	0x3d6c1ae6	0.05764284
23	0xbd83c5ef	-0.06434237
24	0xbc104b6c	-0.0088070445
25	0xbd0b5981	-0.034020904
26	0xbe4b92fe	-0.19880292
27	0x3d4ce043	0.05001856
28	0x3d9181ed	0.071048595
29	0xbd658703	-0.05603696
30	0x3deb02f1	0.114751704
31	0x3d633a5c	0.055475578
32	0xbe2f5deb	-0.1712567
33	0xbda49471	-0.080361255
34	0xbc58f581	-0.013242126
35	0xbda5d665	-0.08097533
36	0xbe4e9c61	-0.20176841
37	0xbdb24df7	-0.08706277
38	0xbe2c9346	-0.16853055
39	0xbda1fc21	-0.07909418
40	0xbe106f9f	-0.1410508
41	0x3d9f9d1f	0.0779364
42	0xbe1dab12	-0.1539729
43	0xbd624576	-0.055242024
44	0xbdff5972	-0.12468232
45	0x3dab684c	0.083695024
46	0x3d85dddd	0.06536458
47	0xbe086d0c	-0.13322848
48	0xbe24956f	-0.1607263
49	0x3d9f09eb	0.077655636
50	0xbd6c2195	-0.057649214
51	0xbcd88f43	-0.0264355
52	0x3d03fd6a	0.032224096
53	0xbe2821dd	-0.16419168
54	0xbc936126	-0.01799066
55	0xbe6ffc6d	-0.23436137
56	0xbdb6f71d	-0.08933852
57	0x3d16f37d	0.036853302
58	0xbe0c514e	-0.1370289
59	0xbd62dbad	-0.05538528
60	0xbc95f5a4	-0.018305607
61	0xbdf38e1e	-0.11892341
62	0xbe64259f	-0.22279976
63	0xbd2b6a3b	-0.041849356
64	0x3da12e88	0.07870203
65	0xbccc670f	-0.024951486
66	0xbe047bfb	-0.1293792
67	0xbe6bfb5d	-0.23045106
68	0xbe6351f9	-0.22199239
69	0x3d0db8d1	0.034600083
70	0x3dc51b55	0.09624354
71	0xbdf636da	-0.12022181
72	0xbdafcb7c	-0.085837334
73	0xbd131c53	-0.035915684
74	0xbd62cef2	-0.05537314
75	0xbdd4b3d0	-0.10385859
76	0x3d1eaccd	0.038739014
77	0x3d13ff99	0.03613243
78	0xbcb5f1c2	-0.022210006
79	0xbe3d980c	-0.18515033
80	0xbe0f2b68	-0.13981402
81	0xbd668bcf	-0.056285676
82	0x3cbf7af1	0.023374053
83	0xbd9cd784	-0.07658294
84	0xbe4f3cc7	-0.20238028
85	0xbe2b19bf	-0.1670904
86	0xbe1b2c6d	-0.15153666
87	0x3e4cd3c2	0.20002654
88	0xbd32bcf1	-0.04363722
89	0xbdd5a077	-0.10430997
90	0xbe271c36	-0.16319355
91	0xbdb0d391	-0.08634103
92	0x3ce29e45	0.02766336
93	0xbe5a7d62	-0.21336892
94	0xbe068dee	-0.1314008
95	0xbe5737fc	-0.2101745
96	0xbda91be4	-0.08257273
97	0xbdac5ff3	-0.08416738
98	0xbdf73dd3	-0.12072339
99	0xbcae2eb1	-0.021262499
100	0x3cced8af	0.025249807
101	0xbded36e5	-0.11582736
102	0x3e67ab1e	0.2262387
103	0x3e62258d	0.22084637
104	0x3dbcce0c	0.09218988
105	0x3e272ebb	0.1632642
106	0xbf234496	-0.6377653
107	0xbd08cb70	-0.033397138
108	0xbd23cefb	-0.039992314
109	0x3d228ce0	0.03968513
110	0xbe9dc1d0	-0.3081193
111	0xbd1ecebc	-0.038771376
112	0x3e0a1c36	0.13487324
113	0x3e79072f	0.24319147
114	0x3eb4c140	0.35303688
115	0xbb80b76c	-0.0039281156
116	0xbec469f0	-0.38362074
117	0xbde4aefe	-0.111661896
118	0xbd0e914c	-0.034806535
119	0xbddf56e2	-0.109052435
120	0xbdd69992	-0.1047851
121	0xbd749f67	-0.05972233
122	0x3f0a4103	0.5400545
123	0x3cb332f5	0.021874884
124	0x3e97013c	0.2949313
125	0x3e34d28a	0.1765844
126	0xbd22a13f	-0.039704558
127	0xbd99998f	-0.07499992
128	0x3e87d600	0.26530457
129	0x3e7c2537	0.24623571
130	0x3ee6b83d	0.45062438
131	0x3f085b09	0.5326391
132	0xbcb5094f	-0.022099165
133	0xbe02e862	-0.1278396
134	0xbe32a52a	-0.17445818
135	0x3d9a8bd3	0.075462006
136	0x3d7c3487	0.06157353
137	0x3e1a650d	0.1507761
138	0xbc09b4e4	-0.008404944
139	0xbda8fd3a	-0.08251424
140	0xbd0ee408	-0.034885436
141	0x3e9dbb7c	0.30807102
142	0xbe3a2975	-0.18179877
143	0x3e045cb6	0.12925991
144	0xbe0bd69e	-0.13656089
145	0x3e85be08	0.26121545
146	0x3eb08d96	0.34483021
147	0x3becc82b	0.0072260103
148	0x3e8f48dd	0.27985278
149	0x3d97b417	0.07407396
150	0x3e6eb9ee	0.23313114
151	0x3e987b0d	0.2978138
152	0x3e2401a2	0.16016248
153	0xbd5cbbd3	-0.05389006
154	0x3c52de29	0.01287035
155	0xbed637c3	-0.41839418
156	0xbeb4316d	-0.3519396
157	0x3eaa7f95	0.33300462
158	0x3e113fb8	0.14184463
159	0x3d2344ec	0.03986065
160	0x3ea660ae	0.32495636
161	0xbe8d1e00	-0.2756195
162	0xbd1167bb	-0.035499316
163	0xbd5604b8	-0.052250594
164	0xbe9a07c6	-0.30084056
165	0xbda3d245	-0.0799909
166	0x3e386714	0.18008071
167	0x3e6952dd	0.22785516
168	0xbed261e6	-0.41090316
169	0x3de59c6c	0.11211476
170	0xbdcd8cca	-0.10036619
171	0x3d83fca4	0.06444672
172	0xbd167a2e	-0.036737613
173	0xbce1ed1f	-0.027578888
174	0x3e81d34e	0.25356525
175	0xbd8e9910	-0.06962788
176	0x3e836807	0.25665304
177	0x3f0a8ca4	0.5412085
178	0x3e8cd577	0.2750661
179	0x3e07a53b	0.13246624
180	0x3ecc8532	0.3994537
181	0x3ca3c638	0.019991979
182	0xbd8a7ded	-0.067623
183	0x3d584c75	0.05280729
184	0xbe25ee58	-0.16204202
185	0xbe6e1bdf	-0.2325282
186	0x3e2a6918	0.16641653
187	0x3eda1c20	0.42599583
188	0xbe0839ea	-0.13303342
189	0xbe7e714f	-0.24847911
190	0xbe3f7b47	-0.1869937
191	0x3db4c40f	0.08826458
192	0x3e8146f0	0.25249434
193	0xbeed5613	-0.46354732
194	0xbeacb9db	-0.33735546
195	0x3e2c54f5	0.16829284
196	0xbd6010f8	-0.054703683
197	0x3e9cbcd2	0.30612808
198	0x3e48ccec	0.19609421
199	0x3eccfac4	0.4003507
200	0xbec8876f	-0.39165828
201	0x3dcaec55	0.09908358
202	0x3e37ff61	0.17968513
203	0xbcd3e887	-0.025867714
204	0x3de08583	0.10962965
205	0x3eb4f45d	0.35342684
206	0x3f540597	0.8282103
207	0x3e2a76f5	0.16646941
208	0xbe331e36	-0.17491993
209	0xbde1d6ce	-0.11027299
210	0x3eb1f8cf	0.34760138
211	0x3ed0beb3	0.40770492
212	0xbe850814	-0.25982726
213	0x3ece39c1	0.40278438
214	0xbe9df0d8	-0.30847812
215	0x3e8ebe7d	0.27879706
216	0x3e779278	0.24176967
217	0x3e7f6084	0.24939162
218	0x3edb577f	0.42840192
219	0x3c783427	0.015149153
220	0x3e656868	0.22403109
221	0x3e8976ae	0.26848358
222	0xbc646ed0	-0.013942435
223	0x3b046100	0.0020199418
224	0x3e61fed6	0.22069868
225	0xbe323e46	-0.17406568
226	0xbd4b2d84	-0.049603954
227	0x3e6b967b	0.23006622
228	0x3e272c7a	0.1632556
229	0x3f112456	0.5669607
230	0xbee09814	-0.43866026
231	0xbbe8791d	-0.007094516
232	0x3d5d6d23	0.05405916
233	0x3e7e7d4c	0.24852484
234	0x3e633a43	0.22190194
235	0x3d9d4992	0.07680048
236	0x3e8e2be4	0.2776786
237	0x3e1c3eea	0.15258375
238	0x3eb607e8	0.35552907
239	0x3df9b876	0.12193386
240	0x3e59654f	0.21230052
241	0x3e34cc7b	0.17656128
242	0xbe1686c9	-0.14699854
243	0x3e2ab002	0.16668704
244	0xbe236cfc	-0.15959543
245	0x3e818229	0.25294617
246	0xbe91e36d	-0.28493825
247	0x3ef80cfd	0.4844741
248	0x3db8dba4	0.09026268
249	0x3e9da0a6	0.30786628
250	0x3e64fca6	0.22362003
251	0xbea817d4	-0.3283068
252	0x3da20899	0.07911796
253	0x3ca557a7	0.020183397
254	0xbecedeec	-0.4040445
255	0xbde2ed4c	-0.11080417

layers.2.bias f4 [50]
0	0xbd4721f6	-0.048616372
1	0x3e19ee83	0.15032391
2	0x3de67991	0.11253656
3	0x3e374784	0.17898375
4	0xbdacf76e	-0.08445631
5	0xbe875d47	-0.26438352
6	0x3e1c5586	0.15267
7	0xbcd62058	-0.02613847
8	0xbda1ad18	-0.07894343
9	0xbccdd2a5	-0.025124857
10	0xbde34e17	-0.11098879
11	0xbe0552d8	-0.13019884
12	0x3e6a22c0	0.22864819
13	0x3d4028df	0.046913978
14	0xbd9738ac	-0.07383856
15	0xbe02a4f4	-0.12758237
16	0xbe059d6b	-0.13048331
17	0xbe3bc44b	-0.18336599
18	0x3e339838	0.17538536
19	0x3e8f51ab	0.27991995
20	0xbd2bcde3	-0.041944396
21	0xbc659ab5	-0.014013936
22	0xbdbfdabe	-0.09367894
23	0xbe2781c2	-0.16358092
24	0xbe955931	-0.2916961
25	0xbdaac661	-0.08338619
26	0x3aaa5fe8	0.0012998553
27	0x3e523ee2	0.205318
28	0x3e372be8	0.17887843
29	0x3c2b17aa	0.010442654
30	0xbb349130	-0.0027552359
31	0xbd116386	-0.035495304
32	0xbe1fa5ed	-0.1559064
33	0xbdce6566	-0.10077934
34	0x3c2a1db7	0.010383061
35	0xbdc5d9b4	-0.09660664
36	0xbe155243	-0.14582162
37	0xbe4b82a4	-0.19874054
38	0xbe2b3950	-0.16721082
39	0xbd8baaea	-0.06819709
40	0xbe891789	-0.26775768
41	0xbe2aec37	-0.16691671
42	0xbdfd15e9	-0.12357695
43	0xbdd1fafb	-0.10252949
44	0xbd5e87c2	-0.054328687
45	0xbd022bcc	-0.03178005
46	0xbd85c4ea	-0.06531699
47	0xbdd1871c	-0.10230848
48	0xbc31ed17	-0.010859749
49	0xbd82465f	-0.063610785

layers.4.weight f4 [7, 50]
0	0xbdf0884a	-0.11744745
1	0xbe08d266	-0.1336151
2	0xbef4c423	-0.4780589
3	0xbe9795c0	-0.29606438
4	0x3d184698	0.0371767
5	0x3e1b16c4	0.15145403
6	0xbe38fd1b	-0.18065302
7	0x3d8a6fbd	0.06759594
8	0xbeae7d89	-0.3408015
9	0xbf151c9a	-0.5824677
10	0xbe148375	-0.14503272
11	0xbea33880	-0.31879044
12	0xbe7a3f24	-0.24438149
13	0x3f0d399e	0.5516604
14	0xbd5e3b81	-0.054255966
15	0xbeaf2a73	-0.34212074
16	0xbdcc8217	-0.0998575
17	0xbed7aaa2	-0.4212237
18	0x3e63ccfb	0.22246163
19	0xbed7e6af	-0.42168185
20	0xbe8bde53	-0.27318057
21	0x3e384ad0	0.17997289
22	0xbf161814	-0.5863049
23	0xbe13f876	-0.14450249
24	0xbe8a2e87	-0.26988623
25	0xbe8814a7	-0.26578256
26	0x3ea2f9dc	0.31831253
27	0xbe4cc035	-0.19995196
28	0x3e9620ef	0.29322
29	0x3cab5852	0.020916138
30	0xbdb8979d	-0.09013293
31	0x3e8c073f	0.27349278
32	0xbd8649c8	-0.065570414
33	0xbcd3aeb5	-0.025840143
34	0x3d9a69e5	0.07539729
35	0x3d2315da	0.03981576
36	0x3c503db5	0.012710025
37	0xbef7230b	-0.48268923
38	0xbeea7282	-0.45790488
39	0xbb03a876	-0.0020089424
40	0xbe977f0e	-0.29589123
41	0x3d80ebf6	0.06295006
42	0x3db012ac	0.085973114
43	0xbe5c89bf	-0.21536921
44	0xbc8cd382	-0.017190699
45	0x3d9e7ff8	0.07739252
46	0xbd8af5f5	-0.06785194
47	0x3e413067	0.1886612
48	0xbea72135	-0.32642522
49	0xbe5d7b8c	-0.2162916
50	0x3d6985e6	0.05701246
51	0xbd2c5305	-0.04207136
52	0x3e5329b1	0.20621373
53	0x3f9527e8	1.1652803
54	0xbcfa0f81	-0.030524971
55	0x3d13c12a	0.036072887
56	0x3f7fd338	0.9993167
57	0x3ec4d019	0.38440016
58	0xbea5abcd	-0.32357636
59	0xbf0f110f	-0.55885404
60	0x3f8b0ff1	1.086424
61	0xbef95d5d	-0.48704043
62	0x3e9b54f3	0.3033825
63	0xbe7a9b84	-0.24473387
64	0x3da1cb1a	0.07900067
65	0xbf0372d5	-0.51347095
66	0x3d42b266	0.047533415
67	0x3f6959db	0.91152734
68	0x3f90e9a8	1.1321306
69	0x3f0ee385	0.5581592
70	0x3f90c38a	1.1309674
71	0xbc848cb2	-0.01618037
72	0xbf032613	-0.5122997
73	0x3cd78c74	0.02631209
74	0xbf1cd894	-0.6126797
75	0xbe60b2d4	-0.21943218
76	0x3f111013	0.5666515
77	0x3dc15f2a	0.09441979
78	0x3ebedb99	0.37276915
79	0xbf25fce7	-0.64839023
80	0xba38f47c	-0.0007055474
81	0xbb746ba1	-0.0037295597
82	0xbc46dd03	-0.012137654
83	0xbeaa7a4a	-0.33296424
84	0x3f273f97	0.65331405
85	0xbce40ed9	-0.027839111
86	0x3c0e7b36	0.008696368
87	0xbf220e9b	-0.63303536
88	0xbed5b9cf	-0.41743323
89	0xbe02ba51	-0.12766387
90	0xbed5e9e6	-0.41780013
91	0x3c5d8df6	0.013522616
92	0x3d3eb608	0.046560317
93	0xbdaa21ad	-0.083072044
94	0xbe240610	-0.16017938
95	0xbd57653c	-0.05258678
96	0xbd8c7963	-0.0685909
97	0x3df8cbda	0.121482566
98	0xbe2a4cf1	-0.16630913
99	0xbc9c1783	-0.01905418
100	0x3dbfb80a	0.093612745
101	0x3e9929d0	0.29914713
102	0x3e1c2f69	0.1525246
103	0xbe90eb8f	-0.28304717
104	0xbda95c9a	-0.082696155
105	0x3cabba10	0.020962745
106	0xbe4d337b	-0.2003917
107	0xbd3fa29e	-0.046785943
108	0x3eb29749	0.34881046
109	0xbe5246cf	-0.20534824
110	0xbd9a71b7	-0.07541221
111	0x3d961358	0.07327908
112	0xbe2279e6	-0.15866813
113	0xbe069dba	-0.13146105
114	0x3d187736	0.037223063
115	0xbe81ca06	-0.25349444
116	0x3b92ebab	0.00448366
117	0xbd7d0561	-0.061772708
118	0xbe2159b9	-0.15756883
119	0xbe9ba583	-0.30399713
120	0xbd9aefbe	-0.075652584
121	0xbd89342d	-0.06699405
122	0x3e35c8b9	0.17752351
123	0x3e237996	0.1596435
124	0xbe376b3a	-0.17911997
125	0x3e8940a2	0.26807123
126	0xbe6f9d57	-0.23399864
127	0xbc8631d6	-0.016381186
128	0xbe9674eb	-0.29386076
129	0x3da3d339	0.07999272
130	0x3cd9ed02	0.026602272
131	0xbbd2af7a	-0.00642961
132	0x3c05b887	0.0081616705
133	0xbe847836	-0.25872964
134	0xbdc26c5e	-0.09493326
135	0xbdb8305f	-0.08993601
136	0x3c510043	0.01275641
137	0xbea7c1e9	-0.3276513
138	0xbd8d909f	-0.0691235
139	0xbdad6954	-0.08467355
140	0x3f190b0f	0.597825
141	0x3c12dbe2	0.008963557
142	0xbd409f7d	-0.0470271
143	0x3e910410	0.28323412
144	0xbc090125	-0.008362089
145	0x3be4a5b0	0.0069777593
146	0xbde0563e	-0.109539494
147	0x3c2c1909	0.010504016
148	0xbe0c3f7d	-0.13696094
149	0x3dbf469a	0.09339638
150	0x3e07e13a	0.13269511
151	0xbd59fce0	-0.053219676
152	0x3e86b49e	0.26309675
153	0xbdb0219a	-0.08600159
154	0x3d4de0d7	0.050263252
155	0xbcd6179f	-0.02613431
156	0xbe959b9d	-0.29220286
157	0xbed3a95f	-0.41340157
158	0x3f7940b1	0.97364336
159	0x3ff6c9f6	1.9280384
160	0xbee43af7	-0.44576237
161	0x3f514686	0.81748235
162	0xbd84da03	-0.06486895
163	0x3deff31c	0.11716291
164	0x3de94027	0.11389189
165	0x3f38ef7c	0.72240424
166	0xbc81826a	-0.015809257
167	0xbf1176e1	-0.5682202
168	0xbf0bdca1	-0.5463353
169	0x3f4e397a	0.8055645
170	0xbf40c15d	-0.7529505
171	0x3cf385b3	0.029726839
172	0x3f021c76	0.5082468
173	0x3bb9d711	0.00567139
174	0x3ee541aa	0.4477666
175	0x3f404b03	0.7511446
176	0xbe9f1230	-0.31068563
177	0xbeb38f9f	-0.35070512
178	0xbd730569	-0.05933133
179	0x3f0537a4	0.52038026
180	0x3f5c8239	0.86136204
181	0x3e05550f	0.13020729
182	0x3d992771	0.07478226
183	0x3f7e79dc	0.9940469
184	0xbdf83127	-0.1211875
185	0xbdab1540	-0.083536625
186	0xbd28476f	-0.04108375
187	0x3fdbae5a	1.7162583
188	0x3fdada63	1.7097896
189	0x3e173e72	0.14769915
190	0x3f7287a6	0.94738233
191	0xbd9b9220	-0.075962305
192	0x3c80f457	0.01574151
193	0x3f33ebf7	0.7028193
194	0x3d73985e	0.05947148
195	0xbc976541	-0.018480899
196	0xbc8fea5f	-0.017567812
197	0x3e7fe52b	0.24989764
198	0x3f4d7ca5	0.8026832
199	0xbcfb85bb	-0.030703416
200	0xbdc49ad9	-0.09599847
201	0xbde192c4	-0.110143214
202	0xbc5b9503	-0.013402226
203	0xbe6ef02b	-0.23333804
204	0xbdabae21	-0.08382822
205	0xbd851f24	-0.0650008
206	0xbed4dc4c	-0.41574323
207	0xbcb36e57	-0.0219032
208	0xbe2ff4b2	-0.17183188
209	0xbe153205	-0.14569862
210	0x3d26ee16	0.0407544
211	0xbd90bde4	-0.07067469
212	0x3eb170d8	0.34656405
213	0x3eee054e	0.46488422
214	0xbc2cec3e	-0.010554371
215	0xbcf274ab	-0.029596647
216	0xbdbea2fd	-0.09308431
217	0x3d71537b	0.058917504
218	0xbec74adb	-0.38924298
219	0xbe379a58	-0.17929971
220	0x3d9f940b	0.07791909
221	0x3dd37881	0.10325719
222	0x3dde829f	0.10864758
223	0x3da12e68	0.078701794
224	0x3dc05cee	0.09392725
225	0xbdc1a10e	-0.09454547
226	0x3dcaac2e	0.09896122
227	0x3f2263e1	0.63433653
228	0x3ee59cc0	0.44846153
229	0x3e7e71e1	0.24848129
230	0x3c919cc1	0.017774941
231	0xbd7825b8	-0.060582846
232	0xbce15a59	-0.027508901
233	0xbd421e94	-0.047392443
234	0xbe8f7b6c	-0.2802385
235	0xbbcd3538	-0.0062624477
236	0x3d098eaf	0.03358334
237	0xbe7de1f7	-0.2479323
238	0xbe248bb3	-0.16068916
239	0xbcc7340e	-0.024316814
240	0xbd4af5ed	-0.04955094
241	0xbd111895	-0.035423834
242	0x3ccdefc4	0.025138743
243	0xbd0c40f1	-0.03424162
244	0xbd95cd1f	-0.07314514
245	0x3e12cbac	0.14335507
246	0xbd2e8e76	-0.04261633
247	0x3d9c63bd	0.07636211
248	0xbe285087	-0.16436969
249	0x3d862e84	0.06551841
250	0x3cd585d7	0.026064796
251	0x3deba593	0.1150619
252	0xbe8d54d9	-0.27603796
253	0x3df98566	0.12183647
254	0xbdc16738	-0.094435155
255	0x3c6839f3	0.014173972

layers.4.bias f4 [7]
0	0x3ea7956d	0.3273119
1	0x3e56f9f6	0.2099379
2	0xbe12ef05	-0.14348991
3	0x3e9b3494	0.3031355
4	0x3ee7da58	0.4528377
5	0x3cd4de76	0.025984984
6	0xbe835bf8	-0.25656104
