tictactoe_selfplay_v1.pth (torch, 15293 bytes, 6 tensors)

layers.0.weight f4 [64, 9]
0.40626127 -1.5289673 0.105464496 -1.8164048 -0.34158754 -0.23220374 1.7343417 0.18512736
-0.4560504 1.250272 -0.38628504 -1.3840728 -0.3780096 -0.12654701 -0.94263655 -0.62034035
1.65166 -1.9119244 0.6186595 -1.0825065 -0.6333914 0.8832214 -0.29293403 -0.8374458
-0.03799687 0.9498525 -1.4043754 -0.06315473 -0.26838788 -0.07613719 -0.22276282 -0.097784385
0.025394617 -0.056440696 0.23103018 -0.18485637 2.039398 0.7181858 0.122633696 -0.2553814
-2.9502518 0.69851106 0.32114685 -0.79113084 -0.77760047 0.45552912 0.6909815 0.48971152
0.37353784 -0.18933642 -0.043104723 -1.7602661 -2.389614 0.4907561 -0.59108764 -0.19500741
-0.08064309 -3.2899568 2.5865881 0.3579021 -1.0761858 -1.0239621 0.21569856 -0.51453793
0.5245269 0.9027988 -0.12463419 -0.8136574 0.087117836 0.55685574 -1.9108702 -1.4866737
0.08252959 0.09329229 1.0357147 0.2778188 -0.53376234 0.22759858 0.25312474 -1.3069389
-0.54001415 0.8392992 -0.4526684 0.14115676 -0.29006204 -1.9931698 -0.35933807 0.21082209
-0.9493226 1.3553361 -1.5910661 -0.138551 0.663097 -2.3035405 0.97625905 -0.89785135
-0.11581887 0.6772165 2.2745914 -1.1171473 -1.5894183 -3.5115104 2.0496974 2.1551585
-0.75792664 1.6179438 0.7061674 -0.49508536 1.7189051 1.7291231 -0.6885634 1.0817628
-2.383992 1.3103384 -0.91119885 -0.14802063 -0.8704261 1.7988373 0.4648467 0.10824215
-0.7942951 -2.824924 0.7152173 0.4547811 0.095215656 -0.5495512 0.9195143 -0.82191426
-0.072803795 -1.1146874 -0.053391065 2.0122442 0.16105066 -1.9232464 -0.73023653 -0.2861572
0.5697735 2.143458 1.3684412 -1.1145616 -0.4455074 -0.19077098 -1.484231 -2.2787437
0.73021567 0.03710452 -1.4574192 0.28311557 0.9123365 -0.6756736 -1.2781732 -0.044636223
0.05454906 0.3952813 1.3171872 0.9071085 -0.4304092 0.24052928 -1.1187111 -1.955417
-1.9589598 0.92060095 0.39675063 -0.2631157 -0.040477745 -0.3913719 -0.45137516 0.3520436
-0.48444036 -1.1167597 0.17232805 -1.3358918 -0.025254207 1.3002564 -3.7168903 1.501563
-0.0013980141 -1.942991 0.5202294 1.3307456 -0.7288363 0.5035215 1.2112778 -1.2717618
-0.43726087 -1.438534 -0.46321052 0.064779855 1.7204047 0.630029 -1.8218178 0.08615111
-0.8860498 -1.6882318 -1.1273004 1.4691279 -1.057022 0.5038728 1.1807472 -0.26373708
0.014130475 1.13076 -1.9624407 1.5037999 -0.88333887 -0.18237759 -1.001147 0.38440707
-0.74042165 -0.31369948 1.0966514 -1.4047178 1.5020419 -0.1222289 0.1606411 -0.76817954
1.2006683 0.43767628 0.1155418 -0.6565755 -0.83860797 0.24183623 1.6231012 0.8933654
-2.1473198 -1.4589307 -0.010407249 1.5578942 -3.8376727 1.6318018 0.72854245 -1.6396265
0.19916868 1.3911837 -0.005846491 0.05251617 0.09753966 0.058561858 -0.116287 0.024885735
0.05368626 -0.15598015 -0.048315566 1.1958634 0.18544607 0.93737906 1.0536906 -2.5442245
1.0696923 -0.12796706 -0.06266988 -1.9535288 -0.16820905 -0.74153286 -2.1970828 1.1232916
00000000: 7a01 d03e 33b5 c3bf c5fd d73d f47f e8bf
00000010: 90e4 aebe d1c6 6dbe e9fe dd3f 0792 3d3e
00000020: 707f e9be ea08 a03f 27c7 c5be 4c29 b1bf
00000030: 798a c1be 8a95 01be a150 71bf a0ce 1ebf
00000040: 9869 d33f f0b9 f4bf 7860 1e3f 938f 8abf
00000050: f025 22bf cc1a 623f 73fb 95be d962 56bf
00000060: 9ba2 1bbd 8929 733f 93c2 b3bf 4457 81bd
00000070: 236a 89be d1ed 9bbd f01b 64be 2e43 c8bd
00000080: 5f08 d03c 5c2e 67bd 2d93 6c3e fd4a 3dbe
00000090: 7f85 0240 06db 373f 6027 fb3d 5ac1 82be
000000a0: edd0 3cc0 9fd1 323f 5c6d a43e 8d87 4abf
000000b0: d310 47bf 1d3b e93e 2ae4 303f 78bb fa3e
000000c0: 5a40 bf3e 68e1 41be 948e 30bd 6650 e1bf
000000d0: 70ef 18c0 6244 fb3e 8551 17bf 06b0 47be
000000e0: 3428 a5bd a78e 52c0 a98a 2540 f23e b73e
000000f0: 75c0 89bf 3111 83bf 15e0 5c3e c2b8 03bf
00000100: 6547 063f d21d 673f 3640 ffbd da4b 50bf
00000110: d66a b23d 198e 0e3f 6597 f4bf 534b bebf
00000120: 4605 a93d 0710 bf3d 4d92 843f 443e 8e3e
00000130: a6a4 08bf 9a0f 693e 9199 813e c649 a7bf
00000140: 5e3e 0abf 50dc 563f 27c4 e7be 668b 103e
00000150: 0383 94be 3020 ffbf 29fb b7be bfe1 573e
00000160: ce06 73bf a77b ad3f 0ea8 cbbf 50e0 0dbe
00000170: bac0 293f 356d 13c0 1dec 793f 96d9 65bf
00000180: 7232 edbd 0f5e 2d3f e892 1140 affe 8ebf
00000190: 0f72 cbbf 96bc 60c0 3e2e 0340 1eee 0940
000001a0: 7b07 42bf c818 cf3f 63c7 343f d47b fdbe
000001b0: 1505 dc3f e853 dd3f b145 30bf 3477 8a3f
000001c0: 5393 18c0 2bb9 a73f 5444 69bf b892 17be
000001d0: 3fd4 5ebf 4d40 e63f 6300 ee3e 0fae dd3d
000001e0: ec56 4bbf 8ecb 34c0 7b18 373f 11d9 e83e
000001f0: 6d00 c33d 63af 0cbf 4a65 6b3f f968 52bf
00000200: 281a 95bd 14ae 8ebf 97b0 5abd 9cc8 0040
00000210: 77ea 243e f02c f6bf c8f0 3abf 3283 92be
00000220: addc 113f 6a2e 0940 1529 af3f f4a9 8ebf
00000230: 8c19 e4be 7859 43be 48fb bdbf f0d6 11c0
00000240: 6aef 3a3f e9fa 173d b68c babf 86f4 903e
00000250: e38e 693f f2f8 2cbf 2e9b a3bf 79d4 36bd
00000260: d66e 5f3d 5062 ca3e 9799 a83f 4338 683f
00000270: 985e dcbe 4f4d 763e ed31 8fbf 1b4b fabf
00000280: 32bf fabf 81ac 6b3f e622 cb3e 1ab7 86be
00000290: fecb 25bd e661 c8be a51a e7be 0f3f b43e
000002a0: 9108 f8be fbf1 8ebf c476 303e 81fe aabf
000002b0: e9e1 cebc cd6e a63f 88e1 6dc0 3733 c03f
000002c0: 923d b7ba eeb3 f8bf c12d 053f df55 aa3f
000002d0: 0495 3abf c9e6 003f 270b 9b3f 17c9 a2bf
000002e0: a8e0 dfbe e221 b8bf ee29 edbe 4dab 843d
000002f0: 3936 dc3f 9549 213f 5331 e9bf fe6f b03d
00000300: 29d4 62bf fb17 d8bf 614b 90bf 620c bc3f
00000310: 7f4c 87bf cffd 003f b922 973f 8c08 87be
00000320: 8283 673c bebc 903f 4231 fbbf 847c c03f
00000330: 7f22 62bf 31c1 3abe 9625 80bf 01d1 c43e
00000340: 468c 3dbf 389d a0be 135f 8c3f cbcd b3bf
00000350: e942 c03f 2553 fabd 1a7f 243e 6aa7 44bf
00000360: 80af 993f 1b17 e03e 2ea1 ec3d 5515 28bf
00000370: 03af 56bf eba3 773e c8c1 cf3f 98b3 643f
00000380: b06d 09c0 3ebe babf 2b83 2abc 1469 c73f
00000390: 6e9c 75c0 e2de d03f c281 3a3f 48df d1bf
000003a0: e0f2 4b3e 4f12 b23f ec93 bfbb 321b 573d
000003b0: e0c2 c73d 8fde 6f3d e127 eebd 2bdd cb3c
000003c0: 20e6 5b3d 43b9 1fbe 8be6 45bd 0d12 993f
000003d0: 93e5 3d3e 13f8 6f3f 55df 863f 93d4 22c0
000003e0: adeb 883f cc09 03be 1159 80bd 3b0d fabf
000003f0: fe3e 2cbe 19d5 3dbf 019d 0cc0 05c8 8f3f

layers.0.bias f4 [64]
-0.7693341 0.01110166 -1.4438066 -0.76637363 -0.4910251 -0.6324583 0.17184737 -1.4869618
-1.689313 -0.9616602 0.10115799 0.7696323 -0.2554381 -0.8590629 0.41241637 -0.8861528
-0.06350754 -1.3750882 -1.7242863 -0.6429208 -1.0717223 -0.71646345 -0.80750716 -0.52049595
0.058614124 -0.30269077 -0.4170268 -0.023168035 -1.7151083 -1.8687912 -0.95867276 -1.0431674
-0.77808523 -0.8257046 -0.0628452 -0.8184061 -0.6510256 -0.5062519 -0.93581015 -1.1829774
0.7399062 -0.75972176 -1.1909536 0.09731617 -0.50940937 -1.7564286 -0.63418597 -1.0235633
-0.3667019 -0.5257272 -0.13405758 -1.6313031 -0.22181557 -0.5443522 -0.9703137 -0.60753924
-0.5343737 0.27317014 -1.9521209 -1.3574579 -0.53533566 -1.3917074 -1.3713456 -0.011599133
00000000: 14f3 44bf bde3 353c a8ce b8bf 1031 44bf
00000010: a467 fbbe cae8 21bf c2f8 2f3e c454 bebf
00000020: 693b d8bf 5d2f 76bf ec2b cf3d 9f06 453f
00000030: c8c8 82be 8ceb 5bbf 3d28 d33e e9da 62bf
00000040: 3e10 82bd e402 b0bf 6ab5 dcbf 7596 24bf
00000050: 322e 89bf 266a 37bf cab8 4ebf 393f 05bf
00000060: 5d15 703d 49fa 9abe 8984 d5be e4ca bdbc
00000070: ab88 dbbf 8d34 efbf 946b 75bf 8286 85bf
00000080: 9830 47bf 6061 53bf fcb4 80bd 1083 51bf
00000090: 9da9 26bf b999 01bf 4191 6fbf ce6b 97bf
000000a0: 7e6a 3d3f 207d 42bf 2b71 98bf b34d c73d
000000b0: a768 02bf a7d2 e0bf 035a 22bf 1f04 83bf
000000c0: 5ac0 bbbe 0f96 06bf 6446 09be 8ace d0bf
000000d0: 9f23 63be aa5a 0bbf 7b66 78bf b187 1bbf
000000e0: b7cc 08bf f5dc 8b3e 19df f9bf 2ec1 adbf
000000f0: c20b 09bf 7823 b2bf 4188 afbf 4a0a 3ebc

layers.2.weight f4 [32, 64]
0.7464702 -0.45065126 0.5034923 0.01541466 -1.0978488 -0.61711097 -0.3952669 0.5746446
-1.0450617 -0.12631142 0.019267771 -0.48701552 -1.0209119 -0.65531605 -0.12617956 0.1389228
-0.20994467 -0.06937263 -0.70803857 -0.61839384 -0.118357025 -0.47834256 -0.894256 -0.3904589
-1.3749762 -0.7651799 0.118924454 -0.4479302 -0.2568975 0.17016815 -0.38427588 -0.08477115
-0.4302019 -0.16889034 -0.23354293 -0.14981967 -0.36312658 -0.53510183 -0.08238184 -0.072706744
-0.39047706 -0.21881454 0.029155742 0.023629244 0.7485335 0.07075093 0.09148747 -0.4988173
-0.34552914 -0.28728682 -0.40331116 0.068144575 -0.2652887 -0.34037593 -0.82311535 -0.722715
0.013565898 -0.37461776 -0.6736695 -0.67473584 -0.31597498 -0.5209342 0.29078108 -0.71950275
0.17147519 0.44241446 -0.7165473 0.018785315 0.64269984 0.03467527 -0.8088791 -0.16991222
0.20678984 0.43704268 -0.6159816 0.234974 0.6346866 0.60120255 -0.59558976 1.3090651
-0.431177 -0.23953879 0.003464162 -1.5077525 -1.118026 1.4615808 0.385045 -0.09628817
0.11762653 -1.605693 -0.04176744 -0.4183391 -0.28383335 -0.36815444 -0.045582518 -0.2711129
-0.26425532 0.2526951 0.5886424 0.8536848 -1.1093829 -0.20704687 0.3859346 -0.4159222
0.9941556 -1.0538263 0.1706247 0.7962625 0.8387728 0.021768162 0.3542351 -1.0161818
0.5711431 -0.009313282 0.18160787 -0.2880178 1.1425081 -0.024800269 0.39899716 -0.4066681
-0.023638036 0.16543145 0.9513104 -0.44147635 -0.52025944 -0.34255555 -1.0544753 -0.89799696
-0.10635019 -0.13551821 -0.06676336 0.013125792 -0.06802404 -0.02719676 -0.12661019 -0.07524361
-0.032068178 -0.14315796 -0.03806953 -0.12624486 -0.03937617 -0.01902537 0.043927893 0.04005979
-0.16988584 -0.110058084 0.029326003 -0.006979733 -0.16067497 -0.1343946 -0.10223608 -0.0607823
0.036822245 0.041682567 -0.029435253 -0.094098665 -0.13614787 -0.18153584 0.013171807 -0.103009656
0.04947767 0.06365101 0.07964341 -0.022142213 -0.18206798 0.04970765 0.04716073 -0.07223594
-0.09723598 -0.09175817 0.08649271 -0.051216498 -0.0019952804 0.016408969 -0.084441535 0.09489118
-0.1131686 0.028504154 -0.1541354 -0.047885433 -0.013880283 -0.036876343 0.07360543 -0.13506709
0.06521562 -0.118579865 -0.04931344 0.029444158 0.050173923 -0.10182532 -0.10607433 -0.11463971
-0.9579665 -0.16262284 -0.7941642 -0.049270477 -1.4937545 -0.040800348 -0.76190424 1.4546014
0.1952653 0.08395626 -0.7186668 -1.5108873 -1.0703677 -2.4432077 -2.6626086 2.311272
-0.9790666 -0.03614395 0.056511875 -1.7393003 -0.27342713 -0.34237492 -1.0275686 -1.2217486
-2.464531 -1.7488705 0.074098386 1.0257192 -0.6248879 0.47645447 -0.98182344 0.31277314
-0.22281899 -0.091687605 1.450158 1.9645485 -0.61387724 -0.5668446 -0.5372241 -0.38494498
-0.8403188 -0.641913 2.754487 -0.0063639474 -1.2088388 0.40485123 -0.05741585 -0.37123552
-1.7202395 0.14785242 -1.0358264 0.703845 -1.4883616 -1.500674 -0.017711928 -0.20086423
0.14113452 -1.7492176 0.031721804 0.28284675 -0.16047451 -0.82008034 1.5048445 -0.6432148
00000000: ac18 3f3f c3bb e6be dfe4 003f c58d 7c3c
00000010: 4f86 8cbf fcfa 1dbf 6c60 cabe e91b 133f
00000020: 95c4 85bf c857 01be 72d7 9d3c 195a f9be
00000030: 3ead 82bf cbc2 27bf 3735 01be c741 0e3e
00000040: bcfb 56be 3d13 8ebd 0442 35bf 0f4f 1ebf
00000050: 2b65 f2bd 51e9 f4be f6ed 64bf 3bea c7be
00000060: 38ff afbf d4e2 43bf aa8e f33d 1b57 e5be
00000070: 1288 83be 8f40 2e3e cfbf c4be 7f9c adbd
00000080: 6c43 dcbe 97f1 2cbe e125 6fbe 546a 19be
00000090: baeb b9be 6ffc 08bf cfb7 a8bd 46e7 94bd
000000a0: 9cec c7be eb10 60be 06d8 ee3c 1e92 c13c
000000b0: e49f 3f3f dde5 903d c85d bb3d fb64 ffbe
000000c0: 32e9 b0be 4217 93be cd7e cebe 628f 8b3d
000000d0: ecd3 87be c145 aebe b0b7 52bf da03 39bf
000000e0: 8043 5e3c e6cd bfbe 9b75 2cbf 7dbb 2cbf
000000f0: 79c7 a1be f25b 05bf 42e1 943e 5531 38bf
00000100: 3197 2f3e 2684 e23e a56f 37bf a9e3 993c
00000110: fa87 243f a807 0e3d b312 4fbf 78fd 2dbe
00000120: b7c0 533e 0fc4 df3e f8b0 1dbf 069d 703e
00000130: d27a 223f 69e8 193f 9278 18bf 728f a73f
00000140: 3bc3 dcbe a849 75be fe06 633b 09fe c0bf
00000150: 7a1b 8fbf 1415 bb3f 9e24 c53e bb32 c5bd
00000160: 2ee6 f03d 5987 cdbf 5614 2bbd 8b30 d6be
00000170: 9b52 91be bd7e bcbe bcb4 3abd 4fcf 8abe
00000180: 794c 87be 4161 813e 45b1 163f 168b 5a3f
00000190: 4200 8ebf 1804 54be 3899 c53e c1f3 d4be
000001a0: fb80 7e3f c8e3 86bf 3eb8 2e3e dcd7 4b3f
000001b0: d0b9 563f 2553 b23c 4e5e b53e 3f12 82bf
000001c0: 6f36 123f bc96 18bc 6af7 393e 1277 93be
000001d0: b53d 923f ef29 cbbc 5b49 cc3e cd36 d0be
000001e0: 8ea4 c1bc dd66 293e 1489 733f 3009 e2be
000001f0: b92f 05bf 7163 afbe 0cf9 86bf 21e3 65bf
00000200: 21ce d9bd 49c5 0abe 3abb 88bd 900d 573c
00000210: 3050 8bbd bdcb debc 1aa6 01be 5219 9abd
00000220: ec59 03bd 0098 12be ccee 1bbd 5546 01be
00000230: e848 21bd 18db 9bbc bced 333d bc15 243d
00000240: 8ef6 2dbe 2266 e1bd 163d f03c 3eb6 e4bb
00000250: fb87 24be bd9e 09be 2661 d1bd dcf6 78bd
00000260: ecd2 163d 57bb 2a3d 3322 f1bc cdb6 c0bd
00000270: 596a 0bbe 88e4 39be 90ce 573c baf6 d2bd
00000280: 19a9 4a3d 765b 823d 161c a33d 9663 b5bc
00000290: 0770 3abe 409a 4b3d 9c2b 413d 70f0 93bd
000002a0: a823 c7bd b5eb bbbd 1723 b13d 64c8 51bd
000002b0: 40c3 02bb 1a6c 863c afef acbd 4f56 c23d
000002c0: f0c4 e7bd 8b81 e93c acd5 1dbe 8423 44bd
000002d0: 206a 63bc a60b 17bd 72be 963d 074f 0abe
000002e0: c48f 853d 00da f2bd e4fc 49bd e034 f13c
000002f0: 2c83 4d3d cb89 d0bd 803d d9bd 39c8 eabd
00000300: 4b3d 75bf 9a86 26be 584e 4bbf d7cf 49bd
00000310: 5933 bfbf 441e 27bd 280c 43bf 6130 ba3f
00000320: a0f3 473e 42f1 ab3d 8cfa 37bf c164 c1bf
00000330: cf01 89bf 845d 1cc0 2e68 2ac0 e1eb 1340
00000340: 1ca4 7abf ae0b 14bd ff78 673d 64a1 debf
00000350: a4fe 8bbe c44b afbe 5e87 83bf 4262 9cbf
00000360: e0ba 1dc0 fdda dfbf e5c0 973d c44a 833f
00000370: a7f8 1fbf d7f1 f33e c858 7bbf cd23 a03e
00000380: a92a 64be b6c6 bbbd c79e b93f 5376 fb3f
00000390: 0f27 1dbf ba1c 11bf 8587 09bf 8217 c5be
000003a0: 221f 57bf 6954 24bf 8449 3040 a988 d0bb
000003b0: 3bbb 9abf a948 cf3e e22c 6bbd 9512 bebe
000003c0: cf30 dcbf a066 173e f695 84bf 302f 343f
000003d0: a282 bebf 1616 c0bf 9b18 91bc 5aaf 4dbe
000003e0: 9185 103e 5de6 dfbf b9ee 013d 4ad1 903e
000003f0: 6e53 24be c9f0 51bf bf9e c03f baa9 24bf

layers.2.bias f4 [32]
-1.1462249 -0.3185842 -0.030856097 -1.0520825 -0.08428897 0.30485606 -1.2762462 -0.47826582
-0.679586 -0.98263407 -0.20991622 -0.547086 -0.43737578 -0.08803612 -0.34530014 0.046147667
-0.049218897 -0.49112698 0.26499435 -0.11348029 -0.066199034 -0.14799692 -0.20023334 -0.17284201
-0.28365284 -0.92920727 -0.4456605 -0.4549978 -0.457462 -0.10035979 1.0022575 -0.27712965
00000000: 7fb7 92bf 781d a3be edc5 fcbc a4aa 86bf
00000010: b29f acbd 1816 9c3e 095c a3bf 42df f4be
00000020: 59f9 2dbf e88d 7bbf 47f4 56be d40d 0cbf
00000030: b8ef dfbe 484c b4bd 2ecb b0be 5605 3d3d
00000040: c199 49bd ff74 fbbe 57ad 873e 5b68 e8bd
00000050: 5c93 87bd 818c 17be f809 4dbe 7ffd 30be
00000060: f23a 91be 87e0 6dbf 9d2d e4be 79f5 e8be
00000070: 7638 eabe 6f89 cdbd f949 803f f0e3 8dbe

layers.4.weight f4 [9, 32]
0.31015638 -0.039493524 0.17095995 1.6008868 -0.059361245 -1.1816586 2.2505589 -0.28517494
-0.6261737 -0.25784484 -1.1465555 0.26734462 -0.283922 0.08958938 -0.03689925 -0.007958821
-0.93592376 1.8008859 4.7450047 -0.0029748273 0.0738112 -0.117835574 0.24244568 -2.150289
-0.22432101 0.58932626 0.20305072 0.3472478 -0.103814155 0.060142178 1.4038316 -0.11874535
-0.4859349 -0.26901022 -0.15511061 -1.5801355 -0.14953071 -0.9090597 -3.7084126 0.51664525
-0.25347131 -0.17547764 -1.1681938 0.118052915 0.14255176 0.66872704 0.093619935 -0.10363295
-1.0138879 0.013056074 1.374133 -0.10645862 -0.027983492 0.056786068 -0.3532963 -0.80117667
0.13839191 -0.19612552 -0.009340256 0.18723683 0.2919812 0.0034290703 -0.9414286 -0.1718275
-0.39972237 -0.108867966 0.0155421235 -0.5213284 0.0011947778 -0.17088138 -0.44630128 0.04888698
0.83942664 -0.12176787 0.28646782 0.26566118 0.14730434 -0.19970012 0.16734388 0.0012533665
0.116868585 0.8209838 0.18492948 0.14964902 0.16143413 0.08219768 -0.15182143 -0.4278027
0.22535937 -0.65575856 0.0537237 -0.23221944 0.6288742 0.089954995 -0.079210125 0.16716747
-0.3399616 -0.09469188 0.09617519 0.25944287 -0.06611426 -0.4533055 0.50545335 0.74136823
-0.38723257 -1.1107942 -1.4126521 -0.21064205 0.27874303 -0.15524647 -0.030464366 -0.020047758
-0.87683076 -0.6177482 -1.0942001 0.039575316 0.14957194 0.000872586 -0.114277355 -0.7323261
-0.28544062 -0.07686531 -0.06597457 -0.16847399 -0.49571168 0.17221677 -1.7090985 -0.3079323
0.23108545 1.0274956 -0.050790135 -0.29527354 0.06311038 0.6267315 -1.2817796 0.32500407
-0.06237404 0.33118185 0.29196566 -0.057489023 -0.0053449743 -1.3990412 -0.10851003 0.04435569
0.4249402 -0.7496693 0.48442703 0.13199139 0.0059343604 -0.016221398 -0.22089258 -0.08629346
0.1324811 0.32427683 -0.016923008 0.28159347 0.21707046 0.22016162 1.561946 0.2316518
-0.55859023 -1.7550836 -0.104667455 -0.22916405 -0.039259084 -0.5440151 -1.0647768 -0.7435273
-0.4983379 -0.29798657 -0.18831028 -0.31380898 -0.3565175 -0.36111447 0.0227735 -0.093363814
-1.0870969 -0.009705142 -0.71245503 -0.11342635 -0.08962525 0.105584465 0.19343965 0.116857775
0.33998004 0.17621398 -0.057811778 -0.72563434 0.4593885 0.10270409 -1.5730685 -0.070567265
-1.2212461 -0.1894383 0.030402636 -1.1484095 0.042291056 1.861822 2.169201 -0.14109592
1.15056 0.14054124 3.041905 -0.08391969 0.30180696 0.2766715 0.17268667 -0.14478056
1.8098601 -0.27077633 0.10821594 -0.027386406 -0.13013408 -0.2432909 -0.05363336 2.8410442
-0.24253026 -0.22899172 -0.012812918 0.6876374 -0.37031096 -0.017835537 -0.50949264 -0.12544824
-0.3236872 -0.61013556 -0.089652285 -1.4017768 0.08714065 -0.5985968 -0.17125389 0.5295693
-0.2862058 0.02197734 -1.1737021 -0.7729063 0.11125475 -0.4226577 0.17354187 -0.0044240267
-0.3269179 -0.12044753 -1.6014693 -0.12279934 0.08788066 -0.07009865 -0.027407013 -0.6669679
-0.39072946 -0.9894008 -0.29489657 0.10502823 0.23834027 -0.44216555 -2.1894157 -0.27712375
00000000: d1cc 9e3e f6c3 21bd 2010 2f3e dce9 cc3f
00000010: c724 73bd 9740 97bf 2809 1040 7302 92be
00000020: eb4c 20bf 3d04 84be 55c2 92bf 65e1 883e
00000030: 395e 91be a37a b73d ab23 17bd b765 02bc
00000040: b398 6fbf 6e83 e63f 14d7 9740 52f5 42bb
00000050: 542a 973d c753 f1bd ae43 783e 569e 09c0
00000060: 68b4 65be 16de 163f 87ec 4f3e 77ca b13e
00000070: 849c d4bd a557 763d c1b0 b33f c330 f3bd
00000080: 76cc f8be b5bb 89be 51d5 1ebe e141 cabf
00000090: 941e 19be 23b8 68bf a256 6dc0 dd42 043f
000000a0: fec6 81be 69b0 33be 6087 95bf bac5 f13d
000000b0: 17f9 113e b231 2b3f cfbb bf3d 833d d4bd
000000c0: 14c7 81bf 25e9 553c 97e3 af3f fa06 dabd
000000d0: a33d e5bc 8298 683d 41e3 b4be ea19 4dbf
000000e0: 9cb6 0d3e 21d5 48be e007 19bc 03bb 3f3e
000000f0: 8f7e 953e 41ba 603b 7701 71bf 8cf3 2fbe
00000100: 69a8 ccbe 2bf6 debd 64a4 7e3c c775 05bf
00000110: 179a 9c3a 87fb 2ebe 9a81 e4be b73d 483d
00000120: aae4 563f 6f61 f9bd e9ab 923e be04 883e
00000130: f3d6 163e 307e 4cbe 325c 2b3e 0048 a43a
00000140: cc58 ef3d ff2b 523f 275e 3d3e 983d 193e
00000150: fd4e 253e 4257 a83d 1477 1bbe f508 dbbe
00000160: 9bc4 663e cbdf 27bf 620d 5c3d efca 6dbe
00000170: e6fd 203f 533a b83d eb38 a2bd f32d 2b3e
00000180: 720f aebe d1ed c1bd 7ff7 c43d b2d5 843e
00000190: ea66 87bd a917 e8be 6465 013f 4fca 3d3f
000001a0: 5943 c6be 812e 8ebf c9d1 b4bf 8db2 57be
000001b0: 68b7 8e3e eef8 1ebe 6890 f9bc 323b a4bc
000001c0: fb77 60bf bf24 1ebf c00e 8cbf ba19 223d
000001d0: 6329 193e 41be 643a 3f0a eabd b979 3bbf
000001e0: 4625 92be 8f6b 9dbd ad1d 87bd 7284 2cbe
000001f0: eccd fdbe 9859 303e bdc3 dabf 4da9 9dbe
00000200: aaa1 6c3e fa84 833f 5109 50bd 182e 97be
00000210: 0440 813d 7a71 203f 5b11 a4bf ef66 a63e
00000220: ec7b 7fbd ab90 a93e 867c 953e 9c79 6bbd
00000230: e524 afbb c813 b3bf 823a debd 50ae 353d
00000240: c391 d93e 54ea 3fbf d206 f83e c028 073e
00000250: 0675 c23b bde2 84bc aa31 62be a0ba b0bd
00000260: 20a9 073e 9d07 a63e 1fa2 8abc 052d 903e
00000270: b847 5e3e 0c72 613e d9ed c73f 2136 6d3e
00000280: c5ff 0ebf 94a6 e0bf e45b d6bd fba9 6abe
00000290: 22ce 20bd 9344 0bbf 9b4a 88bf ce57 3ebf
000002a0: 2526 ffbe b291 98be 69d4 40be 92ab a0be
000002b0: 7689 b6be ffe3 b8be 7e8f ba3c 8735 bfbd
000002c0: fe25 8bbf 5102 1fbc 7463 36bf 134c e8bd
000002d0: 718d b7bd ab3c d83d 0b15 463e 2153 ef3d
000002e0: dd11 ae3e 7071 343e 0bcc 6cbd 2cc3 39bf
000002f0: f834 eb3e 8656 d23d 4f5a c9bf 9285 90bd
00000300: cb51 9cbf 1dfc 41be f30e f93c 15ff 92bf
00000310: 6339 2d3d 2f50 ee3f 30d4 0a40 737b 10be
00000320: 8d45 933f 0bea 0f3e 92ae 4240 16de abbd
00000330: 7186 9a3e e3a7 8d3e c6d4 303e 5b41 14be
00000340: 7fa9 e73f 32a3 8abe 52a0 dd3d 7559 e0bc
00000350: de41 05be 4021 79be a7ae 5bbd abd3 3540
00000360: da59 78be ce7c 6abe 46ed 51bc 0109 303f
00000370: 6699 bdbe d51b 92bc 1c6e 02bf 8175 00be
00000380: 54ba a5be d831 1cbf 9e9b b7bd 6c6d b3bf
00000390: cc76 b23d a43d 19bf 2e5d 2fbe db91 073f
000003a0: 9189 92be d309 b43c df3b 96bf 30dd 45bf
000003b0: 88d9 e33d 9766 d8be f6b4 313e 6df7 90bb
000003c0: c861 a7be 32ad f6bd f2fc ccbf 387e fbbd
000003d0: c7fa b33d e28f 8fbd ac84 e0bc 69be 2abf
000003e0: b10d c8be 5f49 7dbf affc 96be 0a19 d73d
000003f0: 790f 743e 8663 e2be 631f 0cc0 2ae3 8dbe

layers.4.bias f4 [9]
1.1137593 -1.1883614 -1.2827748 -1.4223657 0.5643008 1.1757467 -0.056425393 -1.6084404
-0.15151967
00000000: aa8f 8e3f 3a1c 98bf f731 a4bf 1410 b6bf
00000010: 0476 103f de7e 963f 501e 67bd 60e1 cdbf
00000020: f927 1bbe
