tictactoe_selfplay_v2.pth (torch, 15293 bytes, 6 tensors)

layers.0.weight f4 [64, 9]
0	0x3f0d1324	0.5510733
1	0x3eb9dd3b	0.36301598
2	0xbe8c95ef	-0.2745814
3	0x3ee75c75	0.45187727
4	0xbea126db	-0.31474957
5	0x3e62c70d	0.22146244
6	0xbe40c02f	-0.18823312
7	0x3ec38ee3	0.3819495
8	0x3e6fffa3	0.23437361
9	0xbf00f0d7	-0.5036749
10	0x3ef8d0a2	0.48596674
11	0x3e5961cb	0.21228711
12	0x3ec346da	0.38139993
13	0xbd6ef99a	-0.058343507
14	0x3e3f411b	0.1867718
15	0x3abf6b21	0.001460407
16	0x3ecc4028	0.39892697
17	0xbccf3178	-0.025292143
18	0xbef34561	-0.4751387
19	0x3ec4dbb5	0.38448873
20	0xbe123218	-0.14276922
21	0x3db435a2	0.08799292
22	0xbea4f4bd	-0.3221797
23	0x3eb1f6f2	0.34758717
24	0xbe63ce28	-0.22246611
25	0x3de3fcf6	0.11132233
26	0xbda37fb9	-0.079833455
27	0xbe850f63	-0.25988302
28	0x3e720742	0.23635581
29	0xbf07636f	-0.528861
30	0x3f08a299	0.53373104
31	0xbef7012d	-0.48243085
32	0x3ec893d5	0.39175287
33	0x3c7523b2	0.014962124
34	0x3e0e59a8	0.13901389
35	0x3e63d1fb	0.2224807
36	0x3ca49abc	0.020093314
37	0x3e84f1e0	0.25965786
38	0x3e1c3797	0.15255581
39	0xbddd34ec	-0.1080111
40	0x3e121e79	0.14269437
41	0xbdb8ff28	-0.09033042
42	0x3e3f098a	0.18655983
43	0x3ebb2200	0.36549377
44	0x3dbf1c8e	0.09331618
45	0xbe7adc06	-0.24497995
46	0x3ed717e4	0.42010415
47	0xbd503d1a	-0.05083952
48	0x3ea26d7a	0.3172415
49	0xbe812884	-0.25226223
50	0xbe37bd63	-0.17943339
51	0xbe1bab89	-0.15202154
52	0xbe06d456	-0.13166937
53	0x3e89e421	0.2693186
54	0x3e7e8f08	0.2485925
55	0xbd9ec132	-0.07751693
56	0x3e424aa0	0.1897378
57	0xbe1eae0c	-0.15496081
58	0x3f09ea67	0.53873295
59	0xbf03c54c	-0.51472926
60	0x3dd2872f	0.102796905
61	0xbed75034	-0.42053378
62	0xbb1ea32b	-0.0024206142
63	0xbdc85bba	-0.097831205
64	0x3e37f9de	0.1796641
65	0xbdb390fc	-0.08767888
66	0x3ece443f	0.40286443
67	0xbebf54b5	-0.37369314
68	0xbe11d8c0	-0.1424284
69	0xbe118746	-0.14211759
70	0x3ee33d7f	0.44382855
71	0x3e0ca09e	0.13733146
72	0x3eda1af4	0.4259869
73	0xbe7dad07	-0.24773036
74	0xbec52f31	-0.38512567
75	0xbe88d267	-0.26723024
76	0xbe9ae38d	-0.30251732
77	0x3e29214a	0.16516605
78	0x3e83fc03	0.25778207
79	0x3ec76beb	0.38949522
80	0xbe754e4f	-0.23955654
81	0xbe8a04c0	-0.2695675
82	0x3ec09f86	0.37621707
83	0xbe66d165	-0.22540815
84	0x3ec4d7ff	0.38446042
85	0xbe844e23	-0.25840864
86	0x3e88b316	0.26699132
87	0xbe5327b0	-0.20620608
88	0xbd400a7a	-0.04688499
89	0x3de40a00	0.1113472
90	0xbe6cde33	-0.23131637
91	0x3d149dfb	0.036283474
92	0x3e800837	0.25006267
93	0x3e8f91b1	0.2804084
94	0xbeb60d97	-0.35557243
95	0xbe118037	-0.14209066
96	0x3ecb77d1	0.3973985
97	0xbdfea69c	-0.12434122
98	0x3dd34a61	0.10316921
99	0xbf12fd9e	-0.5741824
100	0xbe3c303e	-0.18377778
101	0x3e8e69a4	0.27814972
102	0xbd88cdcf	-0.0667988
103	0xbdbd8e63	-0.09255674
104	0x3dace1dc	0.08441517
105	0xbe1373b3	-0.14399604
106	0xbeb66c53	-0.3562952
107	0xbeaa9791	-0.3331876
108	0xbf0c5b1c	-0.5482652
109	0xbea0e4ab	-0.3142446
110	0x3f02b0c8	0.51050997
111	0xba2f3fff	-0.00066852564
112	0x3e91a16f	0.28443477
113	0xbecd7168	-0.40125585
114	0xbe262e7d	-0.16228671
115	0xbe39ef0b	-0.18157594
116	0xbd8c0bfb	-0.068382226
117	0xbec7f4b9	-0.39053896
118	0xbe1406e2	-0.1445575
119	0xbe355229	-0.17707123
120	0x3d613cfc	0.0549898
121	0x36903440	4.297617e-06
122	0xbcb26d00	-0.02178049
123	0xbe1dfb2e	-0.15427849
124	0xbebb7fa0	-0.36620808
125	0xbe42600a	-0.18981948
126	0xbe2bcc97	-0.16777264
127	0xbef1d784	-0.47234738
128	0x3ee87d69	0.4540818
129	0xbddfa12d	-0.10919414
130	0x3ee307f4	0.44342005
131	0x3d22ce21	0.03974736
132	0xbe4d9f0e	-0.20080206
133	0x3e6e0baf	0.23246644
134	0xbe7c9bb6	-0.24668774
135	0x3d0f81b8	0.03503582
136	0xbe94d64c	-0.29069746
137	0xbe900b9a	-0.2813385
138	0x3e4c19e5	0.19931753
139	0xbe321a11	-0.17392756
140	0x3e1ed66f	0.15511487
141	0xbe889660	-0.26677227
142	0x3edd6b51	0.43245938
143	0xbecc2d3e	-0.39878267
144	0xbda87fd5	-0.08227507
145	0xbe549e1c	-0.20763439
146	0x3eb0dbd4	0.34542716
147	0x3e5b7509	0.21431364
148	0x3f26d74c	0.65172267
149	0xbef09de2	-0.46995455
150	0x3e253290	0.1613257
151	0xbec863b0	-0.39138556
152	0xbdfe0940	-0.12404108
153	0xbe939355	-0.28823343
154	0x3eebf765	0.46087185
155	0xbed2ff94	-0.41210616
156	0x3eb82e68	0.35972905
157	0xbd1d7623	-0.038442742
158	0x3e1b6bfa	0.15177909
159	0xbe54c28b	-0.20777337
160	0x3f02aca4	0.5104468
161	0x3dbc9afe	0.0920925
162	0x3d0ca0d3	0.03433306
163	0xbec6f917	-0.38861915
164	0x3ec59b1a	0.38594896
165	0xbe0c1d71	-0.13683106
166	0xbc119861	-0.008886428
167	0x3e98821b	0.29786763
168	0x3e18b7c5	0.14913853
169	0xbe9d7787	-0.30755255
170	0xbef5014f	-0.4785256
171	0xbe67cec5	-0.2263747
172	0x3edc3ed7	0.43016693
173	0xbcd5cfbe	-0.026100036
174	0x3c56eae6	0.013117528
175	0xbec31991	-0.38105443
176	0xbeb804ca	-0.35941154
177	0x3e98febf	0.29881856
178	0x3ec2e7e3	0.3806754
179	0xbe9ad249	-0.3023856
180	0xbc461053	-0.012088853
181	0x3e1e2ddd	0.15447183
182	0xbd65d375	-0.056109864
183	0xbd4fbfb2	-0.050719924
184	0x3e5c141d	0.21492048
185	0x3e142cf8	0.14470279
186	0x3e2ac594	0.16676933
187	0xbda6c0bb	-0.08142229
188	0xbd9bfd4b	-0.07616671
189	0x3e77066f	0.24123548
190	0xbeffc3ee	-0.4995417
191	0x3b51354a	0.0031922632
192	0xbd046abc	-0.032328352
193	0x3f24177d	0.6409834
194	0xbeda3c7d	-0.42624274
195	0xbce837cb	-0.028346917
196	0xbebb2ef2	-0.36559254
197	0xbd124b66	-0.035716437
198	0x3dfbd225	0.12295941
199	0x3da5eafa	0.08101459
200	0xbe2b67f5	-0.16738875
201	0xbe249666	-0.16072997
202	0x3eba4408	0.3638003
203	0x3df162a3	0.117863916
204	0x3c7df716	0.015500804
205	0xbe9a33c7	-0.30117628
206	0xbe2f10c6	-0.17096242
207	0xbee0a93e	-0.43879122
208	0xbe810d60	-0.25205517
209	0x3e40d716	0.18832049
210	0x3e5dff14	0.21679336
211	0x3ec3ac26	0.38217276
212	0xbeefa88d	-0.46808282
213	0xbe15106d	-0.14557047
214	0xbda8142d	-0.08206973
215	0x3e93f535	0.28898016
216	0x3d524be5	0.05134191
217	0xbd4357f1	-0.04769129
218	0x3ebb4afa	0.3658064
219	0xbdfbd755	-0.12296931
220	0xbe5c9d93	-0.21544485
221	0x3ebab342	0.36464888
222	0xbdea7cc2	-0.11449577
223	0xbd4bb9a7	-0.0497376
224	0xbf36084d	-0.71106416
225	0x3ea04057	0.31299087
226	0x3e9aa26e	0.3020205
227	0x3ddf2068	0.10894853
228	0xbe37af30	-0.17937922
229	0xbeca99e2	-0.39570528
230	0xbe9d8568	-0.30765843
231	0x3ea52dd0	0.32261515
232	0x3e82c767	0.25542757
233	0x3e9d48dd	0.30719653
234	0x3e818db0	0.2530341
235	0x3d0e2570	0.034703672
236	0xbca03266	-0.019555282
237	0xbe008d0b	-0.12553804
238	0xbee71bfe	-0.45138544
239	0xbe31c3ae	-0.17359802
240	0x3e694810	0.22781396
241	0xbe56cc3e	-0.2097635
242	0x3c0be470	0.00853835
243	0xbe35d03b	-0.17755215
244	0xbeb3814a	-0.35059577
245	0xbd2c95a2	-0.04213489
246	0xbee7c033	-0.45263824
247	0x3ee7e0c5	0.45288673
248	0xbed61816	-0.4181525
249	0x3e76b296	0.24091563
250	0xbebccbd9	-0.36874273
251	0xbe8e89fb	-0.27839646
252	0xbc60b973	-0.01371609
253	0xbee32ff9	-0.44372538
254	0x3ce0de9c	0.027449898
255	0xbf03fd8a	-0.51558745

layers.0.bias f4 [64]
0	0x3e0b10dc	0.1358065
1	0x3eece8bc	0.46271312
2	0xbd4c3608	-0.049856216
3	0x3de370ed	0.11105523
4	0x3f0c72fd	0.5486296
5	0xbe3aadba	-0.18230334
6	0x3eae44c2	0.34036833
7	0x3f0f23a7	0.55913776
8	0x3ecbfeba	0.39842778
9	0x3ed07e8e	0.40721554
10	0xbe1ecc02	-0.1550751
11	0x3ebb83b9	0.36623934
12	0x3e3fd31c	0.18732876
13	0x3ebd9b8e	0.3703274
14	0x3eeeb7ba	0.46624547
15	0x3f1c2159	0.60988384
16	0x3dd2c7da	0.10292025
17	0x3e96c7bf	0.2944927
18	0x3dd020ac	0.10162482
19	0xbd69ff83	-0.05712844
20	0xbd9f4e4d	-0.077786066
21	0x3cd83e18	0.026396796
22	0x3f260523	0.6485159
23	0x3e84a823	0.25909528
24	0x3e185398	0.14875638
25	0x3ef71f1f	0.4826593
26	0xbe6cb087	-0.23114215
27	0x3e0b3d59	0.13597621
28	0x3e50408f	0.20337127
29	0xbd4038e7	-0.046929266
30	0x3d89c370	0.0672673
31	0x3e7e643b	0.24842922
32	0x3f1f7ebd	0.6230276
33	0x3f3f8874	0.74817586
34	0x3f1a6d48	0.60323
35	0xbe060992	-0.13089588
36	0xbe34d8d8	-0.17660844
37	0x3f2e65fe	0.6812438
38	0x3ee499ac	0.44648492
39	0x3e9aa776	0.30205888
40	0x3e8892bb	0.26674446
41	0xbdc86ce7	-0.097863965
42	0x3e531da9	0.20616783
43	0x3f289b80	0.65862274
44	0x3e80e6a4	0.25175965
45	0x3e7ba940	0.24576283
46	0xbd9c2467	-0.07624131
47	0x3cf8c5c6	0.030367743
48	0x3e94219d	0.28931895
49	0xbd169f62	-0.036773093
50	0x3e6fefaa	0.23431268
51	0x3f0518d0	0.51990986
52	0x3a540a53	0.00080886966
53	0x3ec2d6b7	0.3805444
54	0x3d52ca3e	0.051462404
55	0xbd5248b2	-0.05133886
56	0x3ed880b6	0.422857
57	0x3ed1d4cf	0.40982673
58	0x3e879914	0.26483977
59	0xbe0f121c	-0.13971752
60	0xbe018d66	-0.12651595
61	0x3e2d5dbe	0.16930291
62	0x3b56c0c0	0.0032768697
63	0x3e1ab48e	0.15107939

layers.2.weight f4 [32, 64]
0	0x3e21f1db	0.15814917
1	0xbe4862ee	-0.19568989
2	0xbd9c192a	-0.07621987
3	0x3e2ded55	0.16985066
4	0xbd241ea3	-0.04006828
5	0xbd832c27	-0.06404906
6	0xbcaa95f1	-0.02082345
7	0x3d025cf7	0.03182694
8	0x3e066606	0.13124856
9	0xbc8730d7	-0.01650278
10	0x3dc89dfe	0.097957596
11	0xbe185f0b	-0.14880006
12	0x3d8a9c78	0.06768125
13	0xbdad1a3e	-0.08452271
14	0x3c541afe	0.012945889
15	0x3e312812	0.17300442
16	0xbe023bbb	-0.12718098
17	0xbd5a4104	-0.05328466
18	0x3b07a64e	0.002069849
19	0x3e0a14b6	0.13484463
20	0xbdb0083c	-0.085953206
21	0xbd9db511	-0.07700551
22	0xbc318f77	-0.010837427
23	0x3d855a42	0.06511356
24	0x3d65b838	0.056083888
25	0x3e06bdeb	0.13158385
26	0x3e159ab2	0.14609793
27	0xbe525ce9	-0.20543255
28	0xbd86d436	-0.06583445
29	0xbe3e9d73	-0.1861475
30	0xbc9cfeed	-0.019164527
31	0x3d39cfb3	0.045364093
32	0x3e6a347d	0.22871585
33	0x3e142ff9	0.14471425
34	0xbd206c66	-0.039165877
35	0x3e092cc5	0.13395984
36	0xbdb6489e	-0.089005694
37	0xbda6fc47	-0.08153587
38	0xbe301e52	-0.17199066
39	0x3d7c685c	0.061622962
40	0x3cbcefdb	0.02306359
41	0x3dd6a13f	0.10479974
42	0xbb824ccb	-0.0039764396
43	0x3da9c948	0.082903445
44	0xbe838bbf	-0.25692555
45	0x3da45890	0.080247045
46	0x3c8c955d	0.017161066
47	0x3daca4d7	0.08429878
48	0xbd320a64	-0.04346694
49	0xbd64b24d	-0.055834103
50	0x3dd6ff74	0.104979426
51	0x3dd1ae2f	0.10238301
52	0x3dd10dc8	0.10207707
53	0x3c83ba84	0.016080149
54	0x3d4a28ad	0.049355198
55	0x3dec71cd	0.11545143
56	0x3e7f86ff	0.2495384
57	0x3e3980de	0.18115565
58	0xbe3536e8	-0.17696726
59	0x3e0f199f	0.13974617
60	0x3d795644	0.060873285
61	0xbe17d385	-0.14826782
62	0xbd2c07a4	-0.041999474
63	0x3cb15fa0	0.021652043
64	0x3d98c537	0.07459491
65	0x3d62dabd	0.055384386
66	0xbdda9b4c	-0.10674152
67	0x3c9053b9	0.017618047
68	0x3dfee4df	0.124459974
69	0x3db96b63	0.090536855
70	0x3e1622fb	0.14661781
71	0x3e40b023	0.18817191
72	0x3e5129ad	0.20426054
73	0x3c7d91f3	0.015476692
74	0x3e8e066b	0.27739272
75	0x3e8d8536	0.27640694
76	0x3e0f3cc6	0.13988027
77	0x3db28adc	0.087178916
78	0x3dde500a	0.1085511
79	0x3dba0039	0.09082074
80	0xbd0d30e4	-0.034470454
81	0x3db7fb13	0.089834355
82	0x3deeb5ed	0.11655793
83	0x3e0b9a17	0.13633
84	0x3d4f6e11	0.050642077
85	0x3dc097b4	0.09403935
86	0x3e7dd398	0.24787748
87	0x3d58d122	0.05293382
88	0x3bf8b6b2	0.0075901384
89	0x3e10538f	0.14094375
90	0x3e10810c	0.14111727
91	0xbc4fb3a0	-0.012677103
92	0x3d2193de	0.039447658
93	0x3e23d381	0.15998651
94	0x3dd6a8ef	0.1048144
95	0x3eadce38	0.33946395
96	0x3dfa4769	0.12220652
97	0x3e37ca69	0.17948307
98	0x3e8481f5	0.258804
99	0x3e677c08	0.22605908
100	0x3e1c5936	0.15268406
101	0x3e7395b7	0.2378758
102	0x3e6fc4e0	0.23414946
103	0x3eb9ea9b	0.36311802
104	0x3dced158	0.10098523
105	0x3df9c1a4	0.12195137
106	0x3e384964	0.17996746
107	0x3e02b0c1	0.12762739
108	0x3dede78f	0.11616432
109	0x3e7feab5	0.24991877
110	0x3cabbf24	0.020965166
111	0x3e2be993	0.1678832
112	0xbc81baff	-0.015836237
113	0x3c879a92	0.016553197
114	0x3e62a6c2	0.22133926
115	0x3e1ec2ff	0.15504073
116	0x3d6ba1d0	0.057527363
117	0x3e2e55bf	0.17024897
118	0xbd8f720c	-0.070041746
119	0x3e995ee2	0.29955202
120	0x3e1c9f6f	0.15295194
121	0x3de85d29	0.11345894
122	0x3df9d8f7	0.12199586
123	0x3d406f58	0.046981186
124	0x3d606ab6	0.054789267
125	0x3de22b97	0.1104347
126	0x3de7d2de	0.113195166
127	0xbcc02c5a	-0.023458648
128	0xbe48f69b	-0.19625323
129	0x3e91bb85	0.2846338
130	0x3e6062b4	0.21912652
131	0x3e14462d	0.14479895
132	0xbb050365	-0.0020296213
133	0x3da33852	0.079697266
134	0xbdd0bc3f	-0.10192155
135	0x3cd91c0d	0.026502633
136	0xbe59d57d	-0.21272846
137	0x3d9302d8	0.07178277
138	0x3e6e5867	0.2327591
139	0x3dcf644a	0.101265505
140	0x3d9bbd63	0.07604482
141	0xbcac0b13	-0.021001374
142	0x3c92570a	0.01786377
143	0xbccfb5be	-0.025355216
144	0xbe0d3eb7	-0.13793455
145	0xbd847465	-0.06467513
146	0x3d9bb435	0.07602731
147	0x3e55b0ae	0.20868179
148	0xbd8cecbe	-0.068810925
149	0x3d29d914	0.041466787
150	0xbe1bb1c7	-0.15204535
151	0x3deac818	0.11463946
152	0x3dcaaf63	0.098967336
153	0xbd80e3c3	-0.06293442
154	0x3cccbac2	0.024991397
155	0xbe4ea2a6	-0.20179233
156	0xbe5fb501	-0.21846391
157	0xbda32a25	-0.07967023
158	0xbe2b7ad2	-0.16746071
159	0x3e7d0d2b	0.24712054
160	0xbd97f409	-0.07419593
161	0x3cec81a1	0.028870406
162	0xbe36c239	-0.17847528
163	0x3dfa63e3	0.12226083
164	0x3d4607f8	0.048347443
165	0xbc3c5564	-0.011494968
166	0xbd4e731f	-0.050402757
167	0x3d4938dd	0.049126495
168	0x3d775a6f	0.06038898
169	0x3c257e25	0.010100876
170	0xbe0dca27	-0.13846646
171	0x3e0f252f	0.13979028
172	0x3e995a8c	0.29951894
173	0x3c89645b	0.016771486
174	0xbdf1107c	-0.11770722
175	0x3bc8844b	0.006119286
176	0x3e147e8c	0.14501399
177	0x3e14eae3	0.14542727
178	0xbe2f877e	-0.1714153
179	0x3e2acbe3	0.16679339
180	0x3c77109b	0.015079643
181	0x3e41492c	0.18875569
182	0xbe0bbc5b	-0.1364607
183	0x3be1d074	0.0068913046
184	0xbe2ba0a0	-0.16760492
185	0x3dc844b9	0.09778733
186	0x3e307ad7	0.1723436
187	0xbbeb0e8b	-0.0071733645
188	0x3e74a099	0.23889388
189	0xbdf859d1	-0.12126506
190	0x3d47daa0	0.04879248
191	0x3e152ff7	0.14569078
192	0x3dab2f03	0.08358576
193	0x3d85ade5	0.065273084
194	0x3d3dc752	0.046332665
195	0x3e9a88b2	0.30182415
196	0x3d810fc1	0.06301833
197	0x3c2521fc	0.010078903
198	0x3e90782f	0.28216693
199	0x3dae4b62	0.08510472
200	0x3e0f3002	0.13983157
201	0x3d04510f	0.032303866
202	0xbd31e01a	-0.04342661
203	0x3cadec32	0.02123079
204	0x3d7128fe	0.058876984
205	0x3d3274b0	0.043568313
206	0x3e15ee24	0.14641625
207	0x3e0a8065	0.13525541
208	0x3e906f1e	0.28209776
209	0x3e9b1272	0.3028751
210	0x3e90087e	0.2813148
211	0x3db4892a	0.088152245
212	0xbda7f998	-0.08201903
213	0x3e78ca38	0.2429589
214	0x3dc675d7	0.09690445
215	0x3dc49a20	0.095997095
216	0x3e8bc7e6	0.27300948
217	0x3e2395ec	0.1597516
218	0x3d922660	0.07136226
219	0x3eaae094	0.33374465
220	0x3e5c3418	0.21504247
221	0x3cd203ad	0.025636518
222	0x3e783e8a	0.24242607
223	0xbcd4a026	-0.025955271
224	0x3de9981c	0.11405966
225	0x3e697a11	0.22800471
226	0x3e37fffc	0.17968744
227	0xbe0221c6	-0.12708196
228	0x3da8d1cf	0.08243143
229	0x3d404363	0.046939265
230	0x3de0b480	0.10971928
231	0x3e2593ef	0.16169713
232	0x3e213590	0.15743089
233	0xbe5a9a95	-0.21348031
234	0x3e0f149a	0.13972703
235	0x3dfa70e2	0.12228562
236	0x3e2153cc	0.15754622
237	0x3d568de7	0.052381422
238	0x3e0ba448	0.13636887
239	0x3d993597	0.074809246
240	0x3e828687	0.2549326
241	0x3e2f94cb	0.17146604
242	0x3da23c2f	0.07921635
243	0x3e467c8f	0.19383453
244	0x3eb94d0e	0.361916
245	0x3e89f81e	0.2694711
246	0x3ebb5d94	0.36594832
247	0xbe684609	-0.22682966
248	0x3d849e8d	0.06475554
249	0x3e4942fc	0.19654459
250	0x3e148cc6	0.14506826
251	0xbda5a517	-0.08088129
252	0x3dc09f1a	0.09405346
253	0x3e469289	0.19391836
254	0x3e9e583d	0.30926695
255	0x3e8d7f11	0.27636006

layers.2.bias f4 [32]
0	0xbd36418b	-0.0444961
1	0x3e72ab1d	0.23698087
2	0x3dd9e725	0.106397904
3	0x3e8aa780	0.27080917
4	0xbbbe82b4	-0.005813921
5	0xbd9b105f	-0.07571482
6	0x3daa5bfd	0.083183266
7	0x3e51e87a	0.20498839
8	0x3e63dddd	0.22252603
9	0xbdb3fb16	-0.08788125
10	0x3d81c83c	0.0633702
11	0xbdf9b5a8	-0.12192851
12	0x3e815bd6	0.25265378
13	0x3e173ae1	0.14768554
14	0x3de78f95	0.11306683
15	0x3e4e77f7	0.2016295
16	0xbc6a4a4e	-0.014299942
17	0x3e407ca1	0.18797542
18	0x3e4d7c11	0.20066859
19	0xbbef92b3	-0.007311189
20	0x3e4fa839	0.20279016
21	0xbdd16fc1	-0.102263935
22	0x3e84cb19	0.259362
23	0x3d29f22a	0.04149071
24	0x3e7e91f4	0.24860364
25	0x3eaeb077	0.34119007
26	0x3e450782	0.19241145
27	0x3d0cc266	0.03436508
28	0x3d80fb79	0.062979646
29	0x3e8e23f6	0.2776181
30	0x3dac43d9	0.084113784
31	0x3e1bc2ca	0.15211025

layers.4.weight f4 [9, 32]
0	0x3ccb3f47	0.024810446
1	0x3e419adf	0.18906735
2	0x3e720961	0.2363639
3	0xbe12d73b	-0.14339916
4	0xbc9812fc	-0.01856374
5	0xbda1c0f6	-0.078981325
6	0x3dc22d06	0.09481244
7	0xbe62171f	-0.22079132
8	0xba7b4f8a	-0.00095867424
9	0xbd3610c3	-0.04444958
10	0x3d888f64	0.066679746
11	0x3d44c944	0.048043504
12	0xbe0440dc	-0.12915367
13	0x3d9da187	0.076968245
14	0x3d4e6811	0.050392214
15	0xbe3479c0	-0.17624569
16	0x3e2fda4d	0.17173119
17	0x3dfb37ee	0.12266527
18	0x3dbcdc8e	0.09221755
19	0xbe24a3f8	-0.16078174
20	0x3d938229	0.072025605
21	0xbdb6f23c	-0.08932921
22	0xbe0ad67f	-0.13558386
23	0x3d9c38b9	0.076280065
24	0x3db07940	0.086168766
25	0x3d60ec7e	0.054913037
26	0xbe6e7b59	-0.23289241
27	0x3e0c489a	0.1369957
28	0xbde1cd3a	-0.11025472
29	0x3e0dc41d	0.13844343
30	0x3e69ee33	0.22844772
31	0x3cf83e82	0.030303244
32	0x3e1f127f	0.155344
33	0x3d052700	0.032507896
34	0x3e0761c8	0.13220894
35	0xbe375969	-0.17905201
36	0x3e185c43	0.14878945
37	0x3cfa0236	0.030518632
38	0x3dbb8cfa	0.091577485
39	0xbe2961a2	-0.1654115
40	0x3c5fbed3	0.013656336
41	0x3e11cbf9	0.14237966
42	0xbe8edcf2	-0.27902943
43	0x3dfc7674	0.12327281
44	0xbe501de5	-0.20323904
45	0xbe8056c3	-0.25066194
46	0xbe88c4f9	-0.26712778
47	0xbdceb26f	-0.10092627
48	0xbe7e629e	-0.24842307
49	0xbe5ca524	-0.21547371
50	0xbe5c49d9	-0.21512546
51	0xbc17ab53	-0.0092571555
52	0xbe960c30	-0.29306173
53	0xbda5f57d	-0.08103464
54	0xbdced7e4	-0.100997716
55	0xbd66589b	-0.056236845
56	0xbe2faf2c	-0.17156667
57	0xbd835464	-0.064125806
58	0xbe8458fd	-0.25849143
59	0xbe0175dd	-0.12642618
60	0xbd07d957	-0.033166256
61	0xbe69045c	-0.22755569
62	0x3e15a096	0.1461204
63	0xbe9a3795	-0.3012053
64	0x3deba0c0	0.1150527
65	0x3e2a29a6	0.1661745
66	0xbda91abf	-0.082570545
67	0x3e969bc2	0.2941571
68	0xbd6346a0	-0.055487275
69	0xbcf99b93	-0.030469691
70	0xbdb31f5a	-0.08746214
71	0x3dc91361	0.09818149
72	0x3d9ced4a	0.07662447
73	0xbe1ae1ed	-0.15125246
74	0x3e64d8db	0.22348349
75	0x3b1327a7	0.0022454055
76	0x3eae069e	0.33989424
77	0x3e895ac3	0.26827058
78	0x3eb212a3	0.34779844
79	0x3e59bd5a	0.21263638
80	0x3e902d98	0.28159785
81	0x3eb33801	0.35003665
82	0x3ea21eda	0.31664163
83	0x3d3dad87	0.046308067
84	0x3d03c4b0	0.032169998
85	0xbe1bc9f0	-0.15213752
86	0x3e350815	0.17678864
87	0x3d90ff4c	0.07079944
88	0x3ea4868f	0.3213391
89	0x3e36a016	0.17834505
90	0x3dc4584c	0.09587154
91	0xbdef0184	-0.11670211
92	0xbdcb0c58	-0.09914464
93	0x3e42299e	0.18961188
94	0xbdacc7a2	-0.084365144
95	0x3d3977d8	0.045280308
96	0x3e50bd67	0.20384751
97	0xbe864282	-0.26222616
98	0xbe6bcc04	-0.23027045
99	0xbd7ff953	-0.062493633
100	0x3d7f2a47	0.06229618
101	0xbdd954f0	-0.10611904
102	0x3d0b6ca0	0.03403914
103	0xbdc30b17	-0.095235996
104	0xbe9195c6	-0.2843458
105	0x3cc5b0ea	0.02413221
106	0xbe12e7e9	-0.14346279
107	0x3bc675b3	0.0060565113
108	0x3b255cd3	0.002523233
109	0xbe8ccc92	-0.27499825
110	0x3af46bfe	0.0018647907
111	0xbe978d85	-0.29600158
112	0xbeacfb9e	-0.3378572
113	0xbd44ec72	-0.048077054
114	0xbe8df6bb	-0.27727303
115	0xbdfc52a2	-0.123204485
116	0xbd8cf104	-0.068819076
117	0xbe0432ee	-0.12910053
118	0xbea5e9fc	-0.32405078
119	0xbe037260	-0.128366
120	0xbd2f5465	-0.042805094
121	0xbe3de417	-0.1854404
122	0xbbafcdc0	-0.0053651035
123	0x3d30fe26	0.043211125
124	0x3ce8dca8	0.02842553
125	0xbe8bafd5	-0.27282587
126	0x3e13bccc	0.14427489
127	0xbdf40909	-0.11915786
128	0x3db303b7	0.08740943
129	0x3f06c020	0.5263691
130	0xbdb316c2	-0.08744575
131	0x3e9f3c6e	0.31100792
132	0xbd5f9026	-0.05458083
133	0xbb98092c	-0.0046397652
134	0x3d9d436a	0.07678874
135	0x3ecdaa4d	0.40168992
136	0x3eb1c8d5	0.34723535
137	0xbdfe621a	-0.12421055
138	0x3e2872f2	0.16450098
139	0xbbd7b17a	-0.006582436
140	0x3e84cc5b	0.2593716
141	0x3e2e7eb2	0.17040518
142	0x3f22985b	0.63513726
143	0x3ea79e40	0.32737923
144	0x3e1882d2	0.14893654
145	0x3ec80452	0.39065796
146	0x3ebe0eaa	0.37120563
147	0x3bcee8ae	0.0063143587
148	0x3ee1f88d	0.44134942
149	0xbdd3aa7f	-0.10335254
150	0x3ebf49df	0.37361047
151	0x3ef6f70b	0.48235354
152	0x3ed3fab3	0.41402206
153	0x3ebf37e4	0.3734733
154	0x3e2d99c6	0.16953191
155	0x3d37067b	0.044683915
156	0x3daacb40	0.08339548
157	0x3eae4fd2	0.34045273
158	0x3e561b71	0.20908906
159	0x3ebd5e1f	0.3698587
160	0xbd006126	-0.031342648
161	0xbe2581df	-0.16162823
162	0xbed35480	-0.41275406
163	0xbe9963ca	-0.29958946
164	0xbe017f01	-0.12646104
165	0x3e355081	0.17706491
166	0x3d1d591d	0.038415063
167	0xbeaa6740	-0.33281898
168	0xbe7e026b	-0.2480561
169	0x3d015a81	0.031580452
170	0xbe5f4936	-0.21805272
171	0xbd8ed801	-0.06974793
172	0xbe631d3a	-0.22179118
173	0xbe32e9c5	-0.17471988
174	0xbd2787c1	-0.04090095
175	0xbe34f702	-0.17672351
176	0xbd2638e4	-0.0405816
177	0xbc264641	-0.010148586
178	0xbc44d397	-0.012013338
179	0xbda501d4	-0.08056989
180	0xbe2dfe1f	-0.16991471
181	0xbbbafedd	-0.0057066516
182	0xbe88d527	-0.26725122
183	0xbdd4a0c1	-0.10382224
184	0xbe57edde	-0.21086833
185	0xbe5f3b82	-0.21800044
186	0xbe9fd1e0	-0.3121481
187	0x3d929116	0.07156579
188	0x3dc87d96	0.097895786
189	0x3b9966d7	0.004681449
190	0xbe47e679	-0.19521512
191	0xbe2611cb	-0.16217725
192	0xbd9def41	-0.0771165
193	0xbe0134cb	-0.12617795
194	0xbd3fca1c	-0.046823606
195	0x3e45c1ce	0.19312212
196	0xbdd17d5b	-0.10228988
197	0x3dfe9ab4	0.12431851
198	0x3dbe1e18	0.09283084
199	0x3e1acba0	0.1511674
200	0x3e2b5719	0.16732444
201	0x3daf7066	0.0856636
202	0x3e1dd48c	0.15413111
203	0x3daad37f	0.08341121
204	0xbc7276e3	-0.014798853
205	0xbd1567b1	-0.03647584
206	0xbd17f260	-0.03709638
207	0x3e4c895b	0.19974272
208	0x3e471c4b	0.19444387
209	0x3e3ca250	0.18421292
210	0x3c98152b	0.018564781
211	0x3e24e187	0.16101657
212	0xbe0e59e9	-0.13901486
213	0x3db9a903	0.090654396
214	0xbd637ffd	-0.05554198
215	0xbced0735	-0.0289341
216	0x3e67337f	0.22578238
217	0x3dedd4e8	0.11612874
218	0x3dda1be4	0.10649851
219	0xbddf5ccf	-0.10906374
220	0xbde332b3	-0.110936545
221	0x3e5a83c2	0.21339324
222	0xbe6e439d	-0.2326798
223	0x3e8bdb86	0.2731592
224	0x3e83a63a	0.25712758
225	0xbde99645	-0.11405615
226	0xbe34f61c	-0.17672008
227	0x3db3716e	0.08761869
228	0x3d8d6f2b	0.06905969
229	0x3e132f83	0.14373593
230	0x3de0bc0e	0.109733686
231	0xbe4ff815	-0.2030948
232	0x3d4802bd	0.048830736
233	0x3dc4bee6	0.096067235
234	0xbe577b3b	-0.21043102
235	0x3dabd290	0.08389771
236	0xbe5de876	-0.21670708
237	0xbe739d08	-0.23790371
238	0xbd81f3ef	-0.06345355
239	0xbdd6430c	-0.10462007
240	0xbe11926d	-0.14216013
241	0xbe712e47	-0.2355281
242	0xbd1ee3d4	-0.038791493
243	0x3ee1d269	0.44105843
244	0xbde4cd7e	-0.11172007
245	0xbdf3eb24	-0.11910084
246	0xbdccec16	-0.10005967
247	0xbe93b486	-0.28848666
248	0xbe8c53ac	-0.27407587
249	0xbe1c7bad	-0.15281554
250	0x3e1be34f	0.1522343
251	0xbe1761a5	-0.14783342
252	0xbc941c81	-0.018079998
253	0xbe4c0518	-0.19923818
254	0xbed0e843	-0.40802202
255	0xbd8d87fc	-0.069107026

layers.4.bias f4 [9]
0	0xbd9ead98	-0.07747954
1	0xbe4b7683	-0.19869427
2	0xbd77cf05	-0.060500164
3	0x3d2afa74	0.041742757
4	0x3e3cc016	0.1843265
5	0x3db36e32	0.087612525
6	0x3d775a0f	0.06038862
7	0xbe5a4594	-0.21315604
8	0x3beb9e28	0.0071904846
