tictactoe_selfplay_perfect.pth (torch, 15417 bytes, 6 tensors)

layers.0.weight f4 [64, 9]
0	0x3ee9b406	0.4564516
1	0x3f29adf3	0.6628105
2	0xbf2d7727	-0.6775994
3	0x3ee75c75	0.45187727
4	0xbecb7f19	-0.39745405
5	0x3e62c70d	0.22146244
6	0xbe1facaa	-0.1559321
7	0x3da840a7	0.082154565
8	0x3ea87213	0.32899532
9	0xbf68ef2f	-0.90989965
10	0x3e271698	0.16317213
11	0xbca4c8a6	-0.020115208
12	0x3ec346da	0.38139993
13	0x3e013abc	0.12620062
14	0x3e3f411b	0.1867718
15	0x3e7fc44b	0.24977224
16	0x3cabec73	0.020986771
17	0x3ecae63c	0.3962878
18	0xbf51d0fb	-0.81959504
19	0x3ec4dbb5	0.38448873
20	0xbe9a5107	-0.30139944
21	0x3db435a2	0.08799292
22	0xbe3fcaf6	-0.18729767
23	0x3eb1f6f2	0.34758717
24	0x3c5a7e33	0.013335752
25	0xbe35a72a	-0.1773955
26	0x3e55e5c9	0.20888437
27	0xbf3690fc	-0.7131498
28	0x3e720742	0.23635581
29	0xbf8cef01	-1.1010438
30	0x3f08a299	0.53373104
31	0xbe330631	-0.1748283
32	0x3ec893d5	0.39175287
33	0x3eefbc36	0.4682328
34	0xbe9adcd2	-0.30246598
35	0x3f29f950	0.66396046
36	0xbd39ecef	-0.045391973
37	0x3d929d94	0.07158962
38	0x3e6720cb	0.22571103
39	0xbddd34ec	-0.1080111
40	0xbe89d24d	-0.2691826
41	0xbdb8ff28	-0.09033042
42	0xbebdc493	-0.37064037
43	0x3e987b84	0.29781735
44	0xbe5ad0be	-0.21368691
45	0xbf30cc62	-0.69061863
46	0x3ed717e4	0.42010415
47	0x3ad89030	0.0016522463
48	0x3ea26d7a	0.3172415
49	0xbeec7c22	-0.46188456
50	0xbe37bd63	-0.17943339
51	0x3e764f0b	0.2405359
52	0xbf1225a0	-0.5708866
53	0x3f356299	0.70853573
54	0x3e943608	0.28947473
55	0x3f2a1ae1	0.66447264
56	0x3d0b3b60	0.03399217
57	0xbe1eae0c	-0.15496081
58	0x3f31c95a	0.69447863
59	0xbf03c54c	-0.51472926
60	0x3d7d9a04	0.06191446
61	0xbe1088c5	-0.14114673
62	0xbed3ab92	-0.41341835
63	0x3c2b4de9	0.010455587
64	0x3f11c794	0.5694516
65	0xbca1f5b4	-0.01977048
66	0x3ece443f	0.40286443
67	0xbf448f83	-0.7678148
68	0xbe11d8c0	-0.1424284
69	0xbee49c72	-0.44650608
70	0xbd4d9e96	-0.050200067
71	0x3dbab061	0.09115673
72	0x3f070d16	0.5275434
73	0x3d3a898a	0.045541324
74	0xbf170f0e	-0.59007347
75	0xbe88d267	-0.26723024
76	0xbedd269a	-0.43193513
77	0x3e29214a	0.16516605
78	0x3e1cf2c8	0.15326989
79	0x3dc510d4	0.0962235
80	0xbe5ec4bb	-0.21754734
81	0xbefe9f0a	-0.49730712
82	0x3f6ec4e6	0.93269193
83	0xbf2bed86	-0.67159307
84	0x3ec4d7ff	0.38446042
85	0xbf249bc5	-0.64300185
86	0x3e88b316	0.26699132
87	0xbe70d845	-0.2352
88	0xbe9c0e19	-0.30479506
89	0xbe6f43a9	-0.23365654
90	0xbf1e19c2	-0.61758053
91	0x3d149dfb	0.036283474
92	0xbe0e43b3	-0.13893013
93	0x3e8f91b1	0.2804084
94	0xbb653b20	-0.0034977868
95	0xbe118037	-0.14209066
96	0x3f48a442	0.7837564
97	0xbf009930	-0.50233746
98	0x3ef65b52	0.48116547
99	0xbf72e36c	-0.9487827
100	0xbefe0166	-0.49610442
101	0xbaed2dbc	-0.0018095295
102	0xbd88cdcf	-0.0667988
103	0x3dfe6106	0.124208495
104	0x3dace1dc	0.08441517
105	0x3d13597b	0.035974007
106	0xbf2ee44e	-0.68317115
107	0x3d0071d6	0.031358562
108	0xbf1fec33	-0.62469786
109	0xbf17e4e7	-0.5933365
110	0x3f0f9380	0.5608444
111	0xba2f3fff	-0.00066852564
112	0x3e509534	0.20369416
113	0xbecd7168	-0.40125585
114	0xbe86d03d	-0.26330748
115	0x3dae7658	0.08518666
116	0xbeae686a	-0.34064037
117	0xbf2f9dc0	-0.6860008
118	0xbeeaac8d	-0.4583477
119	0xbebaa814	-0.36456358
120	0x3d613cfc	0.0549898
121	0xbe98ec9a	-0.29868013
122	0xbcb26d00	-0.02178049
123	0xbdfcee67	-0.12350159
124	0xbf14f119	-0.58180386
125	0x3d85c38b	0.065314375
126	0xbd4f07d3	-0.05054457
127	0xbf404313	-0.7510235
128	0x3ed6bf6a	0.41942912
129	0xbddfa12d	-0.10919414
130	0x3e675487	0.22590838
131	0x3d22ce21	0.03974736
132	0xbf04a9a3	-0.51821345
133	0x3f02dfab	0.5112254
134	0xbf243555	-0.6414388
135	0x3edbf4a8	0.42960095
136	0xbeefe8d9	-0.46857336
137	0xbf143cc5	-0.57905227
138	0x3e4c19e5	0.19931753
139	0xbec67260	-0.38759136
140	0x3e1ed66f	0.15511487
141	0xbf2909e7	-0.66030735
142	0x3f1c3eeb	0.61033505
143	0xbf4cc453	-0.79987067
144	0xbdb281cc	-0.08716163
145	0xbe549e1c	-0.20763439
146	0x3e01aa48	0.12662613
147	0x3e5b7509	0.21431364
148	0x3f5edaab	0.8705241
149	0xbef09de2	-0.46995455
150	0x3e2a338d	0.16621228
151	0xbd23119c	-0.039811715
152	0xbef383ca	-0.47561485
153	0xbec8ae03	-0.3919526
154	0x3eebf765	0.46087185
155	0xbf642a19	-0.89126736
156	0x3eb82e68	0.35972905
157	0x3bf81cfd	0.007571815
158	0x3e1b6bfa	0.15177909
159	0xbdb71880	-0.0894022
160	0x3f21fac6	0.63273275
161	0xbcf758c2	-0.03019369
162	0x3d3e3203	0.046434414
163	0xbd36a567	-0.044591334
164	0x3ecfb6e4	0.40569222
165	0xbe0c1d71	-0.13683106
166	0xbe2ffb4f	-0.1718571
167	0x3e98821b	0.29786763
168	0x3e04802a	0.12939516
169	0xbf26cdfa	-0.65158045
170	0xbefb3361	-0.49062636
171	0xbf2ecb40	-0.68278885
172	0x3f3d4dd1	0.73946863
173	0xbef9b530	-0.48771048
174	0x3c56eae6	0.013117528
175	0xbe098a6a	-0.13431707
176	0xbeb804ca	-0.35941154
177	0x3f414823	0.75500697
178	0x3d92a619	0.07160587
179	0x3bb43fe1	0.005500779
180	0x3ec0bf87	0.37646124
181	0x3f24e9b2	0.6441909
182	0x3eb062b0	0.34450293
183	0xbd4fbfb2	-0.050719924
184	0xbe3e264c	-0.18569297
185	0x3e142cf8	0.14470279
186	0xbe68c043	-0.22729592
187	0xbdb550eb	-0.088533245
188	0xbd96533e	-0.07340096
189	0xbda72064	-0.08160475
190	0xbeffc3ee	-0.4995417
191	0xbee22aa8	-0.4417317
192	0xbd046abc	-0.032328352
193	0x3f8aff0a	1.0859082
194	0xbeda3c7d	-0.42624274
195	0x3e96c7d3	0.2944933
196	0xbf0a24e6	-0.5396255
197	0x3e0da2e2	0.13831666
198	0x3e99f938	0.3007295
199	0x3f071ba6	0.52776563
200	0xbe24ddce	-0.16100237
201	0xbe249666	-0.16072997
202	0xbdabe1f1	-0.08392704
203	0x3df162a3	0.117863916
204	0xbec84038	-0.39111495
205	0xbf421ba7	-0.75823444
206	0xbec2a5d9	-0.38017157
207	0xbf5d33f5	-0.86407405
208	0xbe810d60	-0.25205517
209	0xbe752b10	-0.23942208
210	0x3e5dff14	0.21679336
211	0x3f4f56a0	0.80991554
212	0xbeefa88d	-0.46808282
213	0x3e8244c8	0.254431
214	0xbefc5e78	-0.49290824
215	0x3f33274f	0.69981855
216	0x3ea68e1a	0.3253029
217	0x3eb660c3	0.35620698
218	0x3f195f34	0.59910893
219	0xbdfbd755	-0.12296931
220	0xbf1d1d23	-0.61372584
221	0x3ebab342	0.36464888
222	0xbeb212b6	-0.347799
223	0xbee842f6	-0.45363587
224	0xbf7c2a99	-0.985025
225	0x3e9ef172	0.31043583
226	0x3f22db42	0.6361581
227	0x3e891517	0.26773903
228	0xbe37af30	-0.17937922
229	0xbf5b12d2	-0.8557559
230	0xbe9d8568	-0.30765843
231	0x3e27c1af	0.16382478
232	0xbd9138b3	-0.07090893
233	0x3ebcddab	0.3688787
234	0x3f0b7054	0.54468274
235	0x3f27113d	0.6526068
236	0x3e63a24d	0.22229882
237	0xbe008d0b	-0.12553804
238	0xbf97c4a1	-1.1856881
239	0xbe31c3ae	-0.17359802
240	0xbc660921	-0.014040262
241	0xbf53e1f5	-0.8276666
242	0xbe90f3e3	-0.2831107
243	0xbe8e83bd	-0.27834883
244	0xbeb3814a	-0.35059577
245	0xbecf541e	-0.40493864
246	0xbee7c033	-0.45263824
247	0x3f50d128	0.8156915
248	0xbed61816	-0.4181525
249	0x3eaef4eb	0.34171233
250	0xbca0660c	-0.01957991
251	0xbf20a7b3	-0.6275589
252	0xbe113a68	-0.14182436
253	0xbee32ff9	-0.44372538
254	0xbe990d4d	-0.2989296
255	0xbf03fd8a	-0.51558745

layers.0.bias f4 [64]
0	0x3d8dce7d	0.0692415
1	0x3f1e136c	0.61748385
2	0xbda9fa07	-0.08299642
3	0x3e2e0699	0.16994704
4	0x3f0de39f	0.5542545
5	0xb78b9522	-1.6639537e-05
6	0x3e4246b6	0.18972287
7	0x3ed724a7	0.4202015
8	0x3db9405f	0.09045481
9	0x3edf13f0	0.435699
10	0x3e5ca681	0.21547891
11	0x3f0c7a57	0.54874176
12	0x3ea45f65	0.3210403
13	0x3e5c6bac	0.21525449
14	0x3f188c1c	0.5958879
15	0x3f341832	0.7034942
16	0xbe656a47	-0.22403823
17	0xba39a52a	-0.00070818013
18	0xbe430a76	-0.1904696
19	0xbdcf0883	-0.10109045
20	0xbf05050d	-0.5196083
21	0xbc4e54f2	-0.012593495
22	0x3ed5c912	0.41754967
23	0x3d8f3f71	0.06994522
24	0xbe1372dc	-0.14399284
25	0x3dfe3b95	0.12413708
26	0x3e107571	0.141073
27	0xbe6c6673	-0.23085956
28	0xbe39f2b6	-0.18158993
29	0xbdc27dc1	-0.09496642
30	0xbe316e67	-0.17327271
31	0x3efb26f7	0.49053165
32	0x3f12c992	0.5733882
33	0x3f444f45	0.76683456
34	0x3eb6366f	0.35588405
35	0x3ddc163c	0.10746428
36	0xbd6fb5fb	-0.05852316
37	0x3f459b3d	0.7719
38	0x3ea55362	0.3229018
39	0x3f15c3bb	0.58501786
40	0x3da3eb24	0.08003834
41	0x3e3744f0	0.17897391
42	0x3e8924e2	0.26785952
43	0x3f1c5a0c	0.610749
44	0x3ed96487	0.4245951
45	0x3e0a6cf7	0.1351813
46	0xbac0a37b	-0.0014697158
47	0x3dd27efa	0.10278125
48	0x3e0c52bc	0.13703436
49	0xbcd094a8	-0.02546151
50	0xbece386b	-0.40277418
51	0x3f231d5d	0.6371668
52	0xbdad8421	-0.08472467
53	0x3ef0d0a1	0.4703417
54	0xbe781c46	-0.24229535
55	0x3e71ae62	0.23601678
56	0x3ecba301	0.397728
57	0x3f11301a	0.5671402
58	0x3ea63a6c	0.32466447
59	0xbe46095b	-0.19339506
60	0x3e3308bb	0.17483799
61	0x3dd283c7	0.10279041
62	0x3d4587b8	0.048225135
63	0xbe287a0a	-0.16452804

layers.2.weight f4 [32, 64]
0	0xbb210cfb	-0.0024574387
1	0xbe74b478	-0.23896968
2	0x3f0a985e	0.54138744
3	0x3f4bf2b3	0.79667205
4	0xbe06c80e	-0.13162252
5	0x3f6252ed	0.88407785
6	0x3d46eee7	0.04856768
7	0xbdf87bf3	-0.121330164
8	0xbda8bc80	-0.082390785
9	0x3ef350fd	0.47522727
10	0x3f4bf4f7	0.7967066
11	0xbe880dcc	-0.26573026
12	0xbe5aa349	-0.21351351
13	0x3eacb28c	0.3372997
14	0xbe7e9da8	-0.24864829
15	0xbcc6ca60	-0.024266422
16	0xbea2b85b	-0.31781277
17	0x3e9d854b	0.30765757
18	0xbe6a22ea	-0.22864881
19	0x3f0db4d7	0.55354065
20	0xbc8c2d66	-0.017111491
21	0xbefcfe0f	-0.4941258
22	0x3e86cf8c	0.2633022
23	0xbea12161	-0.3147078
24	0xbdf8ca84	-0.12148002
25	0x3d797f85	0.060912628
26	0x3f63220d	0.8872383
27	0xbf1e0f86	-0.61742437
28	0xbf0282e9	-0.50981003
29	0xbe2f5b1e	-0.17124602
30	0xbe9ce40c	-0.30642736
31	0x3ec4afbc	0.38415325
32	0x3dfedf18	0.124448955
33	0x3e41c005	0.18920906
34	0xbe7bbb8b	-0.2458326
35	0x3e817f01	0.2529221
36	0xbed445f2	-0.41459614
37	0x3d770510	0.060307562
38	0xbf5675c4	-0.83773446
39	0x3eccabfc	0.39974964
40	0xbee5908a	-0.44836837
41	0x3e951b6d	0.29122487
42	0xbe6f60c3	-0.23376755
43	0xbc743144	-0.014904324
44	0xbec24c08	-0.37948632
45	0xbeec8e46	-0.46202296
46	0xbda64e43	-0.08120396
47	0xbc660fed	-0.014041883
48	0x3da13f1b	0.078733645
49	0xbe8d6cf9	-0.27622202
50	0xbe7551fa	-0.23957053
51	0x3af58e98	0.0018734513
52	0xbddbc292	-0.10730471
53	0xbe3d2b3b	-0.18473522
54	0xbe2a0fe6	-0.16607627
55	0x3e04cc2c	0.1296851
56	0x3f406c3a	0.7516514
57	0x3f3a050f	0.7266397
58	0xbf06bb12	-0.52629197
59	0xbd6f64f4	-0.058445886
60	0xbee45511	-0.4459615
61	0xbee51759	-0.44744375
62	0xbe29f0a9	-0.16595711
63	0x3de11455	0.10990206
64	0x3ee9982b	0.45623907
65	0x3dd0dc49	0.10198266
66	0x3efff2c7	0.49989912
67	0x3e5aa7aa	0.21353021
68	0x3e99a9d6	0.30012387
69	0x3f071e0d	0.5278023
70	0x3eb83b01	0.35982516
71	0x3f0c1b99	0.5472961
72	0x3ebfca08	0.37458825
73	0x3eafe14a	0.3435157
74	0x3f3b16a7	0.7308144
75	0x3f0ef755	0.5584615
76	0x3ee6b688	0.45061135
77	0x3e9f2be5	0.31088176
78	0x3ea2afd4	0.3177477
79	0x3eb45483	0.35220727
80	0x3e55ab11	0.20866038
81	0x3db7391d	0.0894644
82	0x3ee6f2ae	0.45107025
83	0x3c8edeca	0.017440218
84	0x3e9a6d79	0.30161646
85	0x3e92121d	0.28529444
86	0x3ed2facb	0.41206965
87	0x3e789f3c	0.24279493
88	0x3ecfcae7	0.4058449
89	0x3f1ae04a	0.6049849
90	0x3f42076a	0.7579256
91	0x3e3db446	0.185258
92	0x3e7e74d6	0.24849257
93	0x3e828897	0.25494835
94	0x3ecd832d	0.40139142
95	0x3f1bf090	0.60913944
96	0x3eecf57a	0.46281034
97	0x3ed3adfc	0.41343677
98	0x3eec6543	0.46171007
99	0x3f50cb2f	0.81560034
100	0x3e45130c	0.19245547
101	0x3ebac41a	0.3647774
102	0x3ec95763	0.39324483
103	0x3f361de3	0.71139354
104	0x3e69dc7d	0.22838016
105	0x3f392a35	0.7233003
106	0x3f0251fc	0.5090635
107	0x3e55062b	0.20803134
108	0x3e3f2ba1	0.18668987
109	0x3eb80d0a	0.35947448
110	0x3ed51022	0.4161387
111	0x3f200e85	0.62522155
112	0xbe10b308	-0.14130795
113	0x3ebbdf3e	0.36693758
114	0x3ebb0969	0.36530617
115	0x3f0050b4	0.50123143
116	0x3ecc4b9f	0.39901444
117	0x3e8c348d	0.27383843
118	0x3e8ba0fd	0.27271262
119	0x3f782efb	0.96946687
120	0x3edb6b87	0.42855474
121	0x3eaa12cb	0.33217463
122	0x3e6edbf9	0.233261
123	0x3ed9ef2b	0.42565283
124	0x3e6e83f1	0.23292519
125	0x3eab7fda	0.3349598
126	0x3efaad7d	0.48960486
127	0x3d86e080	0.06585789
128	0xbee1ccbb	-0.4410151
129	0x3f298c6d	0.662299
130	0x3e939fd4	0.28832877
131	0x3ef3c603	0.47612008
132	0x3eb8f559	0.36124685
133	0x3ee05618	0.43815684
134	0x3e700d8a	0.23442665
135	0x3e4b1dfe	0.1983566
136	0xbea74160	-0.32667065
137	0x3ed87293	0.42274913
138	0x3f245a06	0.64199865
139	0x3f08ce3c	0.5343969
140	0x3f03b878	0.5145335
141	0x3eaf715b	0.3426617
142	0x3de39730	0.11112821
143	0xbdf937a7	-0.12168818
144	0x3e6aabf9	0.22917165
145	0x3e4e8a53	0.20169954
146	0x3e98ac7e	0.298191
147	0x3eed058f	0.46293303
148	0x3ea43cfd	0.3207778
149	0x3eac9375	0.3370625
150	0x3e518a49	0.20462908
151	0x3ef986f2	0.48735768
152	0x3e700317	0.23438679
153	0x3e8c4e0b	0.27403292
154	0xbe4e1164	-0.20123821
155	0x3e2946a2	0.1653085
156	0x3e0b8092	0.13623264
157	0x3e918e76	0.28429002
158	0x3dbb4463	0.09143903
159	0x3f20c59b	0.6280152
160	0x3dd7baa6	0.10533647
161	0x3ecb5f91	0.3972135
162	0x3e348d9a	0.17632142
163	0x3eea25c3	0.45731935
164	0x3ee2f161	0.44324782
165	0x3eb31eb0	0.3498435
166	0x3e9305a8	0.28715253
167	0x3ed9149e	0.42398542
168	0x3ed374c1	0.41300014
169	0x3eab7464	0.33487236
170	0xbe11a8ad	-0.14224501
171	0x3efe4ba6	0.4966709
172	0x3f3232fb	0.6960904
173	0x3ec2995a	0.38007623
174	0xbea8d831	-0.3297744
175	0xbd33dce5	-0.043911833
176	0x3e911bec	0.28341615
177	0xbd8a42e2	-0.06751038
178	0x3e29fd6e	0.16600582
179	0x3f0fdd1a	0.5619675
180	0x3e892b46	0.26790828
181	0x3f0fe817	0.56213516
182	0x3d9473e6	0.072486684
183	0x3e612b97	0.21989284
184	0x3e081790	0.13290238
185	0x3ef15f49	0.4714301
186	0x3f0eaa2f	0.5572843
187	0x3eb577ee	0.35443062
188	0x3f226f03	0.6345064
189	0x3d9525e5	0.072826184
190	0x3e8508ea	0.25983363
191	0x3f0622e5	0.52396995
192	0xbdf400e2	-0.11914231
193	0xbd957f4c	-0.072996706
194	0x3db805ff	0.08985519
195	0x3f040027	0.5156273
196	0xbe17a482	-0.14808849
197	0x3e9c2150	0.30494165
198	0x3e98872a	0.29790622
199	0xbe49d164	-0.19708782
200	0xbd8d4996	-0.06898801
201	0x3b33cf33	0.0027436733
202	0x3e650c70	0.22368026
203	0xbe3bb4ae	-0.18330643
204	0xbeae6cdc	-0.34067428
205	0x3dc04857	0.09388798
206	0xbe1c96e3	-0.15291934
207	0xbde3ab0f	-0.11116611
208	0x3eae4f20	0.34044743
209	0x3eef4a93	0.46736583
210	0x3d4f98af	0.05068272
211	0x3edad9ec	0.42744386
212	0xbdbf82ef	-0.093511455
213	0x3edcfdc0	0.43162346
214	0x3e364b6b	0.17802207
215	0x3e06a911	0.13150431
216	0x3d80d07c	0.06289765
217	0xbdbbc285	-0.09167961
218	0x3f0d16f3	0.5511314
219	0x3eea3a04	0.45747387
220	0x3e93dee8	0.28881
221	0x3e9d9a09	0.30781582
222	0xbd01d1ca	-0.03169421
223	0xbd8bcabc	-0.06825778
224	0xbdb11bf2	-0.08647908
225	0x3e06ad03	0.13151936
226	0x3cdbfa8a	0.026852865
227	0xbf039bac	-0.5140941
228	0x3ea8f3c4	0.32998478
229	0x3dd20b8a	0.10256107
230	0x3dee2341	0.11627818
231	0xbd246e81	-0.040144447
232	0x3e94590f	0.28974196
233	0xbf17d340	-0.59306717
234	0xbdff8ca4	-0.12477997
235	0x3d9aa683	0.07551291
236	0xbd83ead4	-0.06441274
237	0x3dfcbe5a	0.12340994
238	0xbb2776f1	-0.0025553072
239	0xbdc34277	-0.095341615
240	0x3ea738aa	0.3266042
241	0xbd7e5ef6	-0.06210228
242	0xbc9e135a	-0.019296337
243	0xbc49d9e8	-0.012320019
244	0x3e2feace	0.17179415
245	0x3e2b3dc1	0.16722776
246	0x3e1a27ed	0.15054293
247	0xbef24b76	-0.47323197
248	0x3e15cd15	0.14629014
249	0x3e873954	0.26410925
250	0x3d0a7c51	0.033809964
251	0xbf151ce2	-0.58247197
252	0x3e87e219	0.26539686
253	0xbde7502b	-0.11294588
254	0x3e3c31e4	0.18378407
255	0x3ee4bddd	0.44676104

layers.2.bias f4 [32]
0	0xbe3b9e50	-0.1832211
1	0x3eeef44c	0.4667076
2	0x3eef8cd8	0.46787143
3	0x3dbbc08a	0.09167583
4	0xbbbe82b4	-0.005813921
5	0xbd9b105f	-0.07571482
6	0x3daa5bfd	0.083183266
7	0x3c7ef5b4	0.01556151
8	0x3ef0a46b	0.4700044
9	0xbe98cae0	-0.2984228
10	0xbd9aadec	-0.07552704
11	0xbdf9b5a8	-0.12192851
12	0xbd155201	-0.03645516
13	0x3ed62564	0.41825402
14	0xbe529911	-0.20566203
15	0x3ef3c8d1	0.47614148
16	0x3e98075c	0.29693115
17	0xbe795fcf	-0.24352954
18	0x3f009a5a	0.5023552
19	0x3ed08648	0.40727448
20	0xbd02d042	-0.03193689
21	0xbdd16fc1	-0.102263935
22	0x3f066b24	0.52507234
23	0x3e13db6a	0.14439169
24	0xbcc70c41	-0.024297835
25	0x3f16fb18	0.5897689
26	0x3d9a30d4	0.075288445
27	0x3d0cc266	0.03436508
28	0x3d80fb79	0.062979646
29	0x3f076bb8	0.5289874
30	0x3edc4cfc	0.43027484
31	0x3d3725cc	0.04471378

layers.4.weight f4 [9, 32]
0	0xbe34832e	-0.17628166
1	0x3e18662f	0.1488273
2	0x3de577e9	0.11204512
3	0xbe89dca0	-0.26926136
4	0xbc9812fc	-0.01856374
5	0xbda1c0f6	-0.078981325
6	0x3dc22d06	0.09481244
7	0xbf0a9296	-0.5412992
8	0xbd1ab06d	-0.03776591
9	0xbeb6a61f	-0.35673615
10	0x3d801dbd	0.06255672
11	0x3d44c944	0.048043504
12	0xbe93aca2	-0.28842646
13	0x3e188369	0.14893879
14	0x3e78a950	0.24283338
15	0xbe94b136	-0.2904145
16	0x3dfa020f	0.12207424
17	0x3e5fe1ae	0.21863434
18	0x3d128ceb	0.03577892
19	0x3d8b9476	0.06815426
20	0x3e688e9c	0.22710651
21	0xbdb6f23c	-0.08932921
22	0xbe63f838	-0.22262657
23	0xbd615083	-0.055008423
24	0x3b5b80e6	0.0033493578
25	0xbdf4efba	-0.11959787
26	0xbf3b676d	-0.7320469
27	0x3e0c489a	0.1369957
28	0xbde1cd3a	-0.11025472
29	0x3e6c7fb7	0.23095594
30	0x3b14491b	0.0022626582
31	0x3dd2d05c	0.10293648
32	0xbe77e505	-0.24208458
33	0x3e2a9b0a	0.16660705
34	0xbdc99be3	-0.09844186
35	0xbbf97afd	-0.0076135383
36	0x3e185c43	0.14878945
37	0x3cfa0236	0.030518632
38	0x3dbb8cfa	0.091577485
39	0x3cb3e296	0.02195863
40	0x3dcca5c7	0.09992557
41	0x3eaa8279	0.33302668
42	0xbd9aae22	-0.075527444
43	0x3dfc7674	0.12327281
44	0x3c0848a8	0.008318104
45	0xbdfa087d	-0.1220865
46	0xbe03f3d0	-0.12885976
47	0x3c3e7fde	0.011627166
48	0xbe1c34d3	-0.15254526
49	0xbd191df7	-0.037382092
50	0xbd71257f	-0.05887365
51	0xbec8f533	-0.39249572
52	0xbdaf312e	-0.08554302
53	0xbda5f57d	-0.08103464
54	0x3ce6fd69	0.028197007
55	0x3dbd12f6	0.09232132
56	0x3c7bc11c	0.015365865
57	0x3db65353	0.089026116
58	0xbd5467f4	-0.05185695
59	0xbe0175dd	-0.12642618
60	0xbd07d957	-0.033166256
61	0xbdc8178a	-0.09770115
62	0x3ea5bf61	0.32372573
63	0xbe0abe17	-0.13549076
64	0x3f7881e8	0.9707322
65	0x3e0523b7	0.13001905
66	0xbdebb624	-0.1150935
67	0x3e050c01	0.1299286
68	0xbd6346a0	-0.055487275
69	0xbcf99b93	-0.030469691
70	0xbdb31f5a	-0.08746214
71	0xbe28ac83	-0.16472058
72	0x3d10fa5e	0.03539502
73	0xbe1ae592	-0.15126637
74	0x3da94700	0.08265495
75	0x3b1327a7	0.0022454055
76	0x3e5c873e	0.21535966
77	0x3ed1842c	0.40921152
78	0x3f565dc4	0.83736825
79	0x3da461b3	0.08026447
80	0x3e1214cc	0.14265746
81	0x3f0e901a	0.5568863
82	0x3e62bcb8	0.22142303
83	0x3d4a6885	0.049416084
84	0x3ea4ced6	0.32189053
85	0xbe1bc9f0	-0.15213752
86	0x3df72dd8	0.12069291
87	0xbdf1df5c	-0.118101805
88	0x3dfbe1a8	0.122989
89	0xbd31bf2a	-0.0433952
90	0x3e82be32	0.25535733
91	0xbdef0184	-0.11670211
92	0xbdcb0c58	-0.09914464
93	0x3e4986fb	0.19680397
94	0xbe47f160	-0.19525671
95	0xbe0517ef	-0.12997411
96	0xbde06f7c	-0.10958764
97	0xbf14963c	-0.5804174
98	0xbefdb612	-0.4955297
99	0xbec2b0bf	-0.38025472
100	0x3d7f2a47	0.06229618
101	0xbdd954f0	-0.10611904
102	0x3d0b6ca0	0.03403914
103	0xbed3417f	-0.41260907
104	0xbf1a4e34	-0.6027558
105	0x3cc5b0ea	0.02413221
106	0xbeec2075	-0.46118513
107	0x3bc675b3	0.0060565113
108	0xbea0fa63	-0.3144103
109	0xbf17efde	-0.59350383
110	0xbea1a3e5	-0.31570354
111	0xbf1d42ff	-0.6143035
112	0xbf281bd5	-0.6566747
113	0xbebb8566	-0.36625212
114	0xbf18722a	-0.595492
115	0xbee1423f	-0.43995854
116	0xbec5e612	-0.38652092
117	0xbe0432ee	-0.12910053
118	0xbf246815	-0.64221317
119	0xbee42b85	-0.44564453
120	0xbeb87ff3	-0.36035118
121	0xbf00d024	-0.503176
122	0xbea50079	-0.32226923
123	0x3d30fe26	0.043211125
124	0x3ce8dca8	0.02842553
125	0xbf175ce5	-0.5912612
126	0xbe2a585b	-0.16635267
127	0xbedf9f7e	-0.4367637
128	0x3eb7ab6e	0.35872978
129	0x3f55d9bf	0.8353538
130	0x3e308fac	0.17242306
131	0x3f1ea704	0.61973596
132	0xbd5f9026	-0.05458083
133	0xbb98092c	-0.0046397652
134	0x3d9d436a	0.07678874
135	0x3f361307	0.71122783
136	0x3f2812f1	0.656539
137	0xbdfe621a	-0.12421055
138	0x3ef1f312	0.4725576
139	0xbbd7b17a	-0.006582436
140	0x3f1155a0	0.5677128
141	0x3ef51a45	0.47871605
142	0x3f71c4cd	0.9444092
143	0x3f2328a5	0.63733894
144	0x3ee4ecef	0.44712016
145	0x3f334a3b	0.7003514
146	0x3f2e29b2	0.6803237
147	0x3e954aed	0.29158726
148	0x3f3fddfa	0.74948084
149	0xbdd3aa7f	-0.10335254
150	0x3f2f3f6f	0.68456167
151	0x3f4ad39a	0.7922913
152	0x3f39893c	0.7247503
153	0x3f2f3a66	0.68448484
154	0x3eef18e6	0.46698684
155	0x3d37067b	0.044683915
156	0x3daacb40	0.08339548
157	0x3f266f4e	0.6501359
158	0x3f03695b	0.51332635
159	0x3f2d5bdf	0.6771831
160	0x3e8071c7	0.25086805
161	0xbd8f202f	-0.069885604
162	0xbf2b71c5	-0.66970474
163	0xbdbc9f1f	-0.092100374
164	0xbe017f01	-0.12646104
165	0x3e355081	0.17706491
166	0x3d1d591d	0.038415063
167	0xbe584352	-0.2111943
168	0xbda1f74b	-0.079084955
169	0x3d015a81	0.031580452
170	0xbd3d09fe	-0.046152107
171	0xbd8ed801	-0.06974793
172	0xbe30265a	-0.1720213
173	0xbbb3d5b4	-0.005488122
174	0x3e4e2f30	0.20135188
175	0xbcc92582	-0.024554018
176	0x3e045d9a	0.12926331
177	0x3e1aba09	0.1511003
178	0x3dea3b85	0.11437134
179	0x3e3bf3c1	0.18354703
180	0x3d0ddb89	0.034633193
181	0xbbbafedd	-0.0057066516
182	0xbe04aaa6	-0.12955722
183	0xbe22cae7	-0.15897714
184	0xbdb03035	-0.08602945
185	0xbdd7f894	-0.105454594
186	0xbd65e52f	-0.05612677
187	0x3d929116	0.07156579
188	0x3dc87d96	0.097895786
189	0x3e4203c4	0.18946749
190	0xbf1b6421	-0.6069966
191	0x3db02de9	0.08602507
192	0xbf5ca4df	-0.86189073
193	0xbe0fe3da	-0.14051762
194	0xbe5b1bcc	-0.21397322
195	0x3ef94a28	0.4868939
196	0xbdd17d5b	-0.10228988
197	0x3dfe9ab4	0.12431851
198	0x3dbe1e18	0.09283084
199	0x3eff9181	0.49915698
200	0x3e118f7c	0.14214891
201	0x3ecdd68f	0.40202758
202	0x3ece845b	0.40335354
203	0x3daad37f	0.08341121
204	0x3eb6666c	0.35625017
205	0xbeb26b52	-0.34847504
206	0xbeca8755	-0.39556375
207	0x3ea6579f	0.32488725
208	0x3eb19ad8	0.3468845
209	0x3cdb5196	0.026772302
210	0x3df2a2e1	0.11847473
211	0xbeabab05	-0.33528915
212	0xbec11727	-0.37712976
213	0x3db9a903	0.090654396
214	0xbbc2d759	-0.0059460816
215	0x3e1da1a5	0.15393694
216	0x3f04f9e1	0.51943785
217	0x3eb8c6bd	0.36089125
218	0x3f06d2e4	0.52665544
219	0xbddf5ccf	-0.10906374
220	0xbde332b3	-0.110936545
221	0x3da45e78	0.08025831
222	0xbe3fdc27	-0.18736325
223	0x3ecd2db1	0.40073922
224	0x3f0cbdfc	0.54977393
225	0x3c8564fc	0.016283505
226	0xbf466c82	-0.7750932
227	0x3eccde2c	0.40013254
228	0x3d8d6f2b	0.06905969
229	0x3e132f83	0.14373593
230	0x3de0bc0e	0.109733686
231	0x3d39dfcd	0.04537945
232	0x3e8cbcae	0.274877
233	0x3dc3e31c	0.09564802
234	0x3cd4689b	0.025928786
235	0x3dabd290	0.08389771
236	0x3ddc10fd	0.10745428
237	0xbd888de6	-0.0666769
238	0x3e4e5158	0.20148218
239	0x3de58b94	0.11208263
240	0xbc2d0cb3	-0.01056211
241	0xba226241	-0.00061944505
242	0x3e06b394	0.13154441
243	0x3f2db04a	0.6784712
244	0x3e138949	0.14407839
245	0xbdf3eb24	-0.11910084
246	0x3dc59f8b	0.09649571
247	0xbe5ebdf0	-0.21752143
248	0xbd129b3c	-0.035792574
249	0x3bddb35b	0.0067657656
250	0x3f0bbe30	0.5458708
251	0xbe1761a5	-0.14783342
252	0xbc941c81	-0.018079998
253	0x3c60f566	0.013730383
254	0xbf8318f8	-1.0241995
255	0x3e511599	0.20418395

layers.4.bias f4 [9]
0	0xbd7e8e2d	-0.06214731
1	0xbd79c92f	-0.06098288
2	0xbe1167c6	-0.14199743
3	0xbe8d832b	-0.27639136
4	0x3ef7ed9c	0.4842347
5	0x3e85d925	0.2614223
6	0xbc070bfc	-0.008242603
7	0x3c86f745	0.01647533
8	0x3e53b1d4	0.20673305
